Pendulum-DDPG/multiagent-version/Models/733.0_critic.pt (torch_old, 491007 bytes, 5 tensors)

fc1.weight f4 [400, 3]
0	0xbc4023e3	-0.011727306
1	0xbcaffd21	-0.021483006
2	0x3bef99fd	0.007312058
3	0xba4bead1	-0.0007778826
4	0xb9228741	-0.0001549991
5	0xba22c52b	-0.000620919
6	0xbad341ae	-0.0016117597
7	0xbb03a8cd	-0.0020089627
8	0x3965e300	0.00021923706
9	0x3983a790	0.0002511111
10	0x3a061a58	0.000511562
11	0xbc19d0a2	-0.009388121
12	0x3b97c664	0.0046318043
13	0xbb12266e	-0.0022300738
14	0xbbc3b171	-0.0059720804
15	0xb7846011	-1.578036e-05
16	0xb7f384d5	-2.9029712e-05
17	0xb83a526a	-4.442261e-05
18	0x3a810740	0.000984408
19	0xba664a47	-0.0008784872
20	0xba73c2da	-0.00092987495
21	0xb856a0b9	-5.117126e-05
22	0xb7895a9f	-1.6373871e-05
23	0xb813d97f	-3.525009e-05
24	0x3c54d260	0.01298961
25	0xbc83eeee	-0.016105141
26	0xbd02246e	-0.031773023
27	0xbf4734ad	-0.7781475
28	0xbf8c01ca	-1.0938046
29	0x3fae80d3	1.3633064
30	0x3e66b5ff	0.22530364
31	0xbf11a9d6	-0.56899774
32	0x402335c7	2.5501573
33	0xb7f2d960	-2.8949871e-05
34	0xb8888b80	-6.510969e-05
35	0xb795581d	-1.7803215e-05
36	0x36ab7e15	5.110875e-06
37	0x3700d776	7.67956e-06
38	0xb6a843d3	-5.014686e-06
39	0x35daf85f	1.6314551e-06
40	0x36fc68b9	7.5223766e-06
41	0xb68b5fa3	-4.1536564e-06
42	0x4000bd90	2.01157
43	0x3fd88b22	1.691746
44	0x40bc9f68	5.894459
45	0xb939312b	-0.00017661291
46	0xb919f761	-0.00014683373
47	0xb8852622	-6.349037e-05
48	0xba44009f	-0.0007476899
49	0xb8cd6a8d	-9.7950084e-05
50	0xba86efe9	-0.0010294887
51	0x3b903ff0	0.004402153
52	0xbbaf7474	-0.0053544585
53	0xbc76141c	-0.015019443
54	0xb91a129b	-0.00014693516
55	0xb9877475	-0.00025835974
56	0xb8e8b08b	-0.00011095506
57	0xbc3b3cc9	-0.0114280665
58	0xbcb1eee7	-0.021720363
59	0xbc814adb	-0.015782764
60	0xb9970ff9	-0.00028812865
61	0xba605206	-0.00085571443
62	0xba8e6a57	-0.0010865432
63	0xbcaa83fe	-0.020814892
64	0xbaa6981e	-0.0012710129
65	0x3b2633b7	0.0025360414
66	0x401a98e5	2.415582
67	0xc048eb73	-3.1393707
68	0xc0921993	-4.565622
69	0xbc579b2b	-0.0131595535
70	0xbb78c3e1	-0.003795855
71	0xbc2d210e	-0.010566963
72	0xb6bfbd55	-5.7142847e-06
73	0xb7a7a6d5	-1.9985639e-05
74	0xb7598876	-1.296598e-05
75	0xba392160	-0.0007062163
76	0xb9b4082e	-0.0003433837
77	0xb99d3434	-0.00029984268
78	0xbb25e0a5	-0.00253109
79	0xbadc4869	-0.0016806248
80	0xbab8be44	-0.001409479
81	0xb72aca71	-1.0179924e-05
82	0xb45fc2ec	-2.0839406e-07
83	0xb6ae8c8c	-5.201966e-06
84	0xb887b03a	-6.4701264e-05
85	0xba907b75	-0.0011023121
86	0xbb0e0a14	-0.0021673487
87	0xb8f80574	-0.00011826577
88	0xb91ed73d	-0.00015148237
89	0xb981016e	-0.00024605863
90	0xbe66f17a	-0.22553053
91	0x3f11d0dd	0.56959325
92	0xc0122dee	-2.2840533
93	0xbbc1e454	-0.0059171114
94	0x39a6fc7e	0.0003185011
95	0xbbad6638	-0.0052917264
96	0x38a70458	7.9639896e-05
97	0xb8313486	-4.2249005e-05
98	0x3839fc6d	4.4342527e-05
99	0xb92165c6	-0.0001539207
100	0xb796dbbe	-1.7983719e-05
101	0xb8bcae59	-8.997013e-05
102	0xb84c2516	-4.867193e-05
103	0xb80bab59	-3.3299762e-05
104	0xb7cccb1d	-2.4413277e-05
105	0xbc1d1ba5	-0.0095891105
106	0xbb95c43f	-0.0045705135
107	0xbc323e30	-0.0108790845
108	0xb95dde06	-0.00021158913
109	0xb8aed434	-8.3364925e-05
110	0xb92cda5a	-0.0001648454
111	0xb9c32f2a	-0.00037228438
112	0xb8a51655	-7.871973e-05
113	0xba10bf6c	-0.0005521688
114	0xb6bf7c88	-5.706741e-06
115	0xb7296fa7	-1.0099181e-05
116	0xb70d7e32	-8.433637e-06
117	0xb9873cbe	-0.00025794463
118	0xb75573b5	-1.27227295e-05
119	0xb8311adc	-4.2225103e-05
120	0xbdcc9906	-0.099901244
121	0xbd8d60eb	-0.06903251
122	0xc02e8296	-2.7267203
123	0x39e6ba3f	0.00044007783
124	0xba157be0	-0.0005702358
125	0xb8c24346	-9.2631715e-05
126	0xbc2e2f26	-0.010631358
127	0xbc84d9b2	-0.016217086
128	0xbc222def	-0.009898647
129	0xb6dfc11f	-6.6684e-06
130	0xb6cb0851	-6.0508396e-06
131	0xb6dbbf81	-6.5490026e-06
132	0x3b231921	0.0024886804
133	0xba156512	-0.00056989596
134	0xbb0a6605	-0.0021117937
135	0xbac1f9ca	-0.0014799174
136	0xba679288	-0.00088337855
137	0xba8929d1	-0.0010464733
138	0xb7ffcae0	-3.049284e-05
139	0xb75e8e0b	-1.3265303e-05
140	0xb7b147b0	-2.1133426e-05
141	0xbc12922f	-0.008945986
142	0xbc442cb7	-0.0119735515
143	0xbbd9c8ec	-0.006646266
144	0xbbe36bc6	-0.006940338
145	0xbbad7815	-0.005293856
146	0xbbfc5815	-0.00770093
147	0xb852dafd	-5.027185e-05
148	0xb666eebd	-3.4411635e-06
149	0xb7fb156d	-2.9931509e-05
150	0xbb3eedca	-0.0029133433
151	0xbb41e3ff	-0.002958536
152	0xbb0efdf4	-0.0021818848
153	0xb5cb3b80	-1.5141995e-06
154	0xb60fbf61	-2.1420058e-06
155	0xb7e3e5f0	-2.7167582e-05
156	0xbf54b183	-0.8308336
157	0xbf55ca80	-0.83512115
158	0xbff9903a	-1.949714
159	0xc0020ac1	-2.0319064
160	0x4002c762	2.0434194
161	0x3fe77430	1.8082333
162	0x3f1eb02a	0.61987555
163	0x3fb7c62f	1.4357356
164	0x3fa17685	1.2614294
165	0xbba3a729	-0.0049942923
166	0xbcafbf27	-0.021453453
167	0xbc873dc2	-0.01650894
168	0xbbb8bf58	-0.0056380443
169	0xbc4ff98a	-0.012693772
170	0xbc987509	-0.018610494
171	0xbb491a3c	-0.0030685803
172	0xbc98a58a	-0.018633623
173	0xbb76f5e6	-0.0037683188
174	0xbb648445	-0.0034868878
175	0xbd041879	-0.0322499
176	0xbb87b7d0	-0.004141785
177	0xbb045726	-0.0020193546
178	0xbb539dd1	-0.003229011
179	0xbbd5233d	-0.006504445
180	0xbbc2b196	-0.00594158
181	0xba2eab0c	-0.0006663061
182	0xbb1b04d5	-0.0023654003
183	0x3ae3db34	0.0017384053
184	0xbb6430b6	-0.0034819073
185	0xbb50d5e6	-0.0031865775
186	0xbca0782c	-0.019588552
187	0xbc3ecc34	-0.0116453655
188	0xbbe94cf9	-0.0071197716
189	0xbc42584b	-0.011861871
190	0xbc609e5a	-0.013709629
191	0xbb850a01	-0.0040600304
192	0xb76f6018	-1.4267884e-05
193	0xb8e9a307	-0.00011140672
194	0xb93c23ba	-0.00017942386
195	0xbbe826d7	-0.007084708
196	0xbbd510ea	-0.0065022605
197	0xbac045c7	-0.0014669233
198	0xb76f3b26	-1.4259282e-05
199	0x35bcdb84	1.4070979e-06
200	0xb68ed9da	-4.257291e-06
201	0xb93ed104	-0.00018197676
202	0xb8143ba2	-3.5341487e-05
203	0xb901a89f	-0.00012365215
204	0x38471f30	4.7474343e-05
205	0xb9b3a0d8	-0.00034261378
206	0xb875326e	-5.845952e-05
207	0xbc372e41	-0.011180461
208	0xbd197f84	-0.037475124
209	0xbd012b0e	-0.0315352
210	0xba312c5a	-0.0006758623
211	0x3a3042c3	0.00067238155
212	0x39d638fd	0.0004085972
213	0xba742585	-0.0009313452
214	0xbcf3b327	-0.029748512
215	0xbcc80083	-0.024414307
216	0xb80f3c70	-3.4150144e-05
217	0xb8158fd7	-3.565833e-05
218	0xb7179f3c	-9.037376e-06
219	0xb7b42d23	-2.147869e-05
220	0xb75dcfd6	-1.3221017e-05
221	0x356ba149	8.777902e-07
222	0xbb8cb4d9	-0.0042940197
223	0xbb2b1db9	-0.0026110245
224	0xbb518987	-0.0031972842
225	0xb93acc20	-0.00017814385
226	0x389faf14	7.614322e-05
227	0xb9c66d07	-0.00037846735
228	0xbbed9f21	-0.0072516357
229	0xbba186c3	-0.004929395
230	0xbb5c8ca1	-0.0033653157
231	0xb79959ef	-1.82809e-05
232	0xb892794e	-6.984417e-05
233	0xb8a1d2be	-7.716332e-05
234	0xb8d3feff	-0.00010108761
235	0xb8d42e7d	-0.00010117607
236	0xb8ebf684	-0.0001125159
237	0x3a467748	0.0007570875
238	0xba38a19d	-0.0007043125
239	0xba75eab3	-0.0009380981
240	0xb96c2ca3	-0.00022523342
241	0xb8ef3e53	-0.00011408017
242	0xba0bab83	-0.00053279864
243	0xbad52b43	-0.0016263503
244	0xbb56d725	-0.0032782045
245	0xbb280b71	-0.0025641585
246	0xbb1c70fe	-0.002387106
247	0xba6e9e0f	-0.0009102532
248	0xba90f541	-0.001105942
249	0xbc7232ec	-0.0147826485
250	0x3a2a3e74	0.00064942916
251	0xbcbd338c	-0.023095869
252	0x37a4c6d8	1.9642917e-05
253	0xb984b6ee	-0.00025313295
254	0xb95e93c8	-0.00021226623
255	0xbcb0c12c	-0.021576487

fc1.bias f4 [400]
0	0x3a67b3c2	0.00088387367
1	0xba881092	-0.0010380915
2	0xbbe13c5a	-0.0068736495
3	0xbc8fd810	-0.017559081
4	0xbbbfc49a	-0.005852294
5	0xb8e65f30	-0.00010984985
6	0xbb303f67	-0.002689326
7	0xb8719002	-5.7592995e-05
8	0xbcddb932	-0.027065847
9	0xbe7dbd22	-0.2477918
10	0xbfcd9131	-1.6059934
11	0xb8be4f1b	-9.0746405e-05
12	0xb78e3006	-1.6950082e-05
13	0xb7d30afb	-2.5158273e-05
14	0xc0a9c474	-5.305231
15	0xb9910c27	-0.0002766561
16	0xbad81111	-0.0016484578
17	0xbca9986c	-0.020702563
18	0xb9cd65c2	-0.00039176462
19	0xbcb982a2	-0.022645298
20	0xba8c5032	-0.0010705052
21	0xbb35170d	-0.0027632148
22	0x4007911f	2.1182325
23	0xba324740	-0.0006800778
24	0xb82d1f97	-4.1275835e-05
25	0xb9f1ce03	-0.00046120593
26	0xbbbe4a34	-0.0058071855
27	0xb7be4499	-2.2681708e-05
28	0xbbcbae59	-0.006215852
29	0xb9ad5e4e	-0.00033067394
30	0x3fa0a0da	1.2549088
31	0xbbbedaba	-0.005824414
32	0xb9a48308	-0.00031378143
33	0xb988051a	-0.00025943742
34	0xb7b16f09	-2.1151749e-05
35	0xbc68d8e8	-0.014211871
36	0xb9d03ce3	-0.00039718216
37	0xba8bef7f	-0.0010676234
38	0xb855a81f	-5.0939732e-05
39	0xb8b039b8	-8.403085e-05
40	0x3fb30ecb	1.398889
41	0xbac8f6b4	-0.0015332312
42	0xbab0127d	-0.0013433244
43	0xb79ce3f1	-1.8702793e-05
44	0xbb8e0322	-0.0043338696
45	0xbad15c64	-0.0015972969
46	0xb87f3b92	-6.0852217e-05
47	0xbbefa6b5	-0.007313574
48	0xbc42bcbc	-0.011885818
49	0xb938b1f6	-0.00017613903
50	0xbbae43d5	-0.005318145
51	0xb8f6e587	-0.00011772947
52	0x40048049	2.07033
53	0x3d90a9ab	0.070636116
54	0xbf94b4c2	-1.1617663
55	0xbcf2e05c	-0.029647999
56	0xbcfb168f	-0.030650405
57	0xbc5d82c6	-0.013519948
58	0xb98fc7e5	-0.00027424018
59	0xbc002839	-0.00782209
60	0xbc310bb2	-0.010806011
61	0xbb85cfb0	-0.004083596
62	0xbcb4489a	-0.022007275
63	0xbc1d13f1	-0.009587274
64	0xb9c1443f	-0.00036862676
65	0xbc3a74b5	-0.011380364
66	0xb6ce3d1c	-6.1463925e-06
67	0xb95f3c35	-0.00021289366
68	0xb998e206	-0.000291601
69	0xbce294fc	-0.027658932
70	0x39cf6f78	0.00039565167
71	0xbc889059	-0.016670393
72	0xb8863e54	-6.4012274e-05
73	0xb7d3e233	-2.5258492e-05
74	0xbb28b41a	-0.0025742115
75	0xba7336b3	-0.0009277865
76	0xbc384add	-0.011248318
77	0xb91ebd0b	-0.00015138478
78	0xb9be262e	-0.0003626807
79	0xbb372ca2	-0.0027950187
80	0xba510f19	-0.0007974967
81	0xbbb372fb	-0.005476353
82	0xbafcb200	-0.0019279122
83	0xbaecdf14	-0.0018071854
84	0xb99553da	-0.0002848197
85	0xbc3f5170	-0.011677131
86	0xb9df966a	-0.00042645942
87	0xb8fadaf5	-0.00011961713
88	0xbbb14da1	-0.0054108654
89	0xbcad46d4	-0.021151938
90	0xb741f58b	-1.1560866e-05
91	0xbccf424f	-0.025300173
92	0x3e9ea8be	0.30988115
93	0xb9d80ad5	-0.000412068
94	0xbca6a101	-0.020340445
95	0xbbf0e458	-0.0073514394
96	0xb70f62f7	-8.546506e-06
97	0xbbc38938	-0.0059672855
98	0xba14a751	-0.0005670684
99	0xbf3b392e	-0.73134124
100	0xbcd897fa	-0.026439656
101	0xbb81e68c	-0.003964251
102	0xbd0864e8	-0.033299357
103	0xbb89eb7d	-0.0042089806
104	0xb82dbfb7	-4.1424963e-05
105	0xbc2c8547	-0.010529823
106	0xb9c2aad8	-0.00037129852
107	0xbc10cfcd	-0.008838606
108	0xbb3ed18a	-0.0029116594
109	0xb941a7c2	-0.00018468409
110	0xb8685007	-5.538764e-05
111	0xbc913e51	-0.01772991
112	0xb87e7093	-6.0663162e-05
113	0xbaa8e715	-0.0012886251
114	0xbc5a32bd	-0.013317761
115	0xbc8a05da	-0.016848493
116	0xb807caab	-3.2375257e-05
117	0xbc0ff70e	-0.00878693
118	0xbb0d900f	-0.0021600758
119	0xb91afbcf	-0.0001478039
120	0xb9efa04f	-0.00045705072
121	0xbb4e8179	-0.0031510277
122	0xba3032f8	-0.0006721462
123	0xb9714fc7	-0.0002301327
124	0xbad67d2d	-0.001636421
125	0xbc2adb84	-0.010428313
126	0xba1ca92b	-0.0005976136
127	0xb7c5fe15	-2.3602546e-05
128	0xb905e708	-0.00012769934
129	0xbc720981	-0.014772774
130	0xbc8ad0b3	-0.016945219
131	0xb9734409	-0.00023199631
132	0xb895c660	-7.141824e-05
133	0xbc22702e	-0.009914441
134	0xbc59743a	-0.0132723395
135	0xb7a8e8d8	-2.0135587e-05
136	0xb9b54771	-0.00034576238
137	0xbb685bd4	-0.0035455124
138	0xbb18c7a1	-0.0023312347
139	0xbbf3273f	-0.00742045
140	0xbb7f6253	-0.0038968518
141	0xb88fa892	-6.85017e-05
142	0xbc5ca53d	-0.01346713
143	0xbc467e57	-0.012115083
144	0xb993007e	-0.00028038392
145	0xba0d1ad2	-0.00053827197
146	0xb731963e	-1.0585003e-05
147	0xb904ae8c	-0.00012653525
148	0xb840f906	-4.600829e-05
149	0xb7dd30f1	-2.6368043e-05
150	0xbb231d18	-0.0024889167
151	0xbca92f30	-0.020652384
152	0xbc3cb5e1	-0.011517973
153	0xb98bc1ab	-0.0002665644
154	0x3b0ed1dd	0.0021792569
155	0xb84a0d2e	-4.8172828e-05
156	0xb7f1d61d	-2.8829143e-05
157	0xbcd3866c	-0.025820933
158	0xb80ca01f	-3.3527725e-05
159	0xb8916884	-6.933606e-05
160	0xb8d3fefe	-0.0001010876
161	0xbc72c8bc	-0.014818367
162	0xb957edfa	-0.00020592651
163	0x39b88ebf	0.0003520157
164	0xba04335d	-0.0005043054
165	0x40444597	3.0667474
166	0xbba0a577	-0.0049025374
167	0x3f41d550	0.75716114
168	0xba8a98e3	-0.0010574128
169	0xbb37a48c	-0.0028021662
170	0x3f3bf8c6	0.73426473
171	0xba29af90	-0.0006472999
172	0xbbe62798	-0.007023763
173	0xbac1390b	-0.0014741732
174	0xbbc63747	-0.00604907
175	0xb97cbd8f	-0.00024103209
176	0xbc14ec67	-0.009089566
177	0xbb2b87f8	-0.0026173573
178	0xbbcf9674	-0.006335074
179	0xbc771dd4	-0.015082795
180	0x3fcf2bd4	1.618525
181	0xb9d5c2ae	-0.00040771574
182	0x402526a8	2.5804844
183	0xbc56a948	-0.013101883
184	0xb7c3af24	-2.3327368e-05
185	0xba16a47f	-0.0005746558
186	0xbbfcae5c	-0.007711215
187	0x402a3c59	2.6599333
188	0xb941b80e	-0.0001847448
189	0xba2b03c2	-0.0006523692
190	0xbb5028c2	-0.0031762575
191	0xbb3d292d	-0.0028863654
192	0xba409dac	-0.00073477137
193	0x3faf5a4b	1.369943
194	0xb7d56bd2	-2.5441786e-05
195	0xba324ed5	-0.0006801908
196	0xb8c4e5d3	-9.3888164e-05
197	0xbab61dc0	-0.0013894364
198	0xb9f793c3	-0.00047221602
199	0xb803a2a7	-3.1384316e-05
200	0xb927d86b	-0.00016006983
201	0xb922609c	-0.00015485514
202	0xb93b8b22	-0.00017885541
203	0xbadd197f	-0.001686856
204	0xbb110206	-0.002212645
205	0xbb83af6e	-0.0040187156
206	0xbc7090be	-0.014682947
207	0xbbd07f8b	-0.0063628606
208	0xba1109e8	-0.0005532787
209	0x3fdd81c2	1.7305224
210	0xbc2af79c	-0.010435011
211	0x3f8faee4	1.1225247
212	0xbb064034	-0.0020485045
213	0xb90227fd	-0.00012412663
214	0xbf49a86f	-0.78772634
215	0xbf34b688	-0.7059102
216	0xbba08da5	-0.004899698
217	0xbb4139b1	-0.002948385
218	0x3f263590	0.6492548
219	0xba3b84ad	-0.0007153254
220	0xbb1a54e3	-0.0023549132
221	0xbcb553be	-0.022134658
222	0x38b043af	8.404941e-05
223	0xbbc8a3cf	-0.006123043
224	0xbc4fa8e1	-0.012674541
225	0xb82de474	-4.1459178e-05
226	0xbf333b0e	-0.70011985
227	0xb845e0c9	-4.7177808e-05
228	0xb9278cd4	-0.00015978824
229	0xbb379dfb	-0.0028017748
230	0xc04e49d6	-3.2232566
231	0xbb250240	-0.0025178343
232	0xb9053838	-0.00012704812
233	0xbb007f4b	-0.0019607123
234	0x3fcbbf4b	1.5917753
235	0xb994426f	-0.00028278257
236	0xbfe50834	-1.7893128
237	0xbc791305	-0.0152022885
238	0xb88c8fea	-6.702526e-05
239	0x3fe75faa	1.8076069
240	0x3f66ffe8	0.9023423
241	0xb87155c6	-5.753876e-05
242	0xb9a8505c	-0.0003210333
243	0xba2a88a5	-0.0006505347
244	0xb9252178	-0.00015748094
245	0xba8347df	-0.0010015926
246	0xb8a1990e	-7.705587e-05
247	0xb8677915	-5.518746e-05
248	0xbf471607	-0.77767986
249	0xbc89b8ae	-0.016811695
250	0xbc71e921	-0.014765055
251	0xbca99869	-0.020702558
252	0xbc7c21fd	-0.015388963
253	0xbcad4d1a	-0.021154929
254	0xbc77c774	-0.015123237
255	0x3f868d38	1.0511847

fc2.weight f4 [300, 401]
0	0xb70b8d30	-8.317918e-06
1	0xb20f46c2	-8.339784e-09
2	0xaecd1cf0	-9.327461e-11
3	0xad05c13d	-7.603082e-12
4	0xb605c7c4	-1.9934823e-06
5	0x2c35a45b	2.5812883e-12
6	0x2e9338d8	6.6948835e-11
7	0xab188621	-5.418739e-13
8	0x2b940430	1.0517195e-12
9	0x39162820	0.00014320062
10	0x39470637	0.00018980434
11	0xb3840026	-6.146756e-08
12	0x3055e2bc	7.781116e-10
13	0xab2e634c	-6.195502e-13
14	0xbb1f8801	-0.002434254
15	0xaa6f5dc1	-2.1259992e-13
16	0xa91c8b20	-3.475963e-14
17	0x333ae7fd	4.3517492e-08
18	0x2c055b34	1.8951065e-12
19	0xabb83d67	-1.3091029e-12
20	0xae6ccad3	-5.384033e-11
21	0xaacfe2ea	-3.692804e-13
22	0x3bdba5db	0.006703121
23	0x30159f9f	5.443272e-10
24	0xaa6a6e7f	-2.0821711e-13
25	0x2c292896	2.4038874e-12
26	0x2b39bb90	6.59855e-13
27	0x336f3f3e	5.5704042e-08
28	0x2c502f43	2.9584813e-12
29	0xb083acd5	-9.580626e-10
30	0xbb53eed9	-0.003233841
31	0x2a2e8fa8	1.5504145e-13
32	0xaaf03d44	-4.2675076e-13
33	0x2c1b8ab0	2.2103812e-12
34	0x307e14fc	9.243448e-10
35	0xacaead75	-4.964635e-12
36	0xad4830fa	-1.1379559e-11
37	0xabab44c3	-1.2169366e-12
38	0xafdb3437	-3.987297e-10
39	0x2c518e61	2.9779723e-12
40	0xbb54cc94	-0.003247057
41	0xb2b7e1b1	-2.1406636e-08
42	0x34b27a21	3.3243944e-07
43	0xaa149efd	-1.3200201e-13
44	0xaca44afc	-4.6694853e-12
45	0xb1e5e194	-6.6904224e-09
46	0xab48cc9f	-7.133824e-13
47	0xb4d26da1	-3.9195314e-07
48	0xac876595	-3.8482086e-12
49	0x3367e678	5.399349e-08
50	0xb33030c6	-4.1022552e-08
51	0xac1f78e1	-2.266236e-12
52	0xbb91c7ad	-0.004448852
53	0xbba531c9	-0.0050413352
54	0xba72dbee	-0.00092643395
55	0xab270f2c	-5.9351374e-13
56	0xb7116c43	-8.66788e-06
57	0xb5cd2353	-1.5283971e-06
58	0xaa6255e0	-2.0102626e-13
59	0x2d091821	7.792906e-12
60	0x2ca92bfc	4.808152e-12
61	0x2c8c0104	3.979152e-12
62	0x2bded1ee	1.5832316e-12
63	0xaee7adf2	-1.0535563e-10
64	0x3043be76	7.121125e-10
65	0x2bd00d75	1.4783024e-12
66	0x29aca790	7.667402e-14
67	0xaac46381	-3.488564e-13
68	0xb10e212f	-2.0682582e-09
69	0x2d1f4037	9.052362e-12
70	0xb49ab96f	-2.8819656e-07
71	0xb4b86728	-3.4347727e-07
72	0x31b1919a	5.167931e-09
73	0xabcefd19	-1.4707429e-12
74	0xac07659a	-1.9241054e-12
75	0x32d5c780	2.4887186e-08
76	0xaf1a34fc	-1.4025042e-10
77	0x2bb54b7b	1.2881774e-12
78	0x2bcf33f0	1.472265e-12
79	0xabc52aa4	-1.4009527e-12
80	0xaba9409a	-1.2026103e-12
81	0x32e1c50a	2.628305e-08
82	0xab8502b9	-9.450974e-13
83	0x32ca27ce	2.3533996e-08
84	0x33ac93ce	8.03626e-08
85	0xb402bf15	-1.2176709e-07
86	0x2b537565	7.5125176e-13
87	0x2c9a068a	4.3776692e-12
88	0x355c5577	8.2080754e-07
89	0xaba5922c	-1.1764526e-12
90	0xafe1577c	-4.0989423e-10
91	0xafd530b0	-3.877907e-10
92	0xbaa629b0	-0.0012677219
93	0xb11585f2	-2.1758493e-09
94	0xaafc98f0	-4.4870314e-13
95	0xb71b2769	-9.247896e-06
96	0x3298d577	1.7792201e-08
97	0x2c74f582	3.481077e-12
98	0x2b883d0c	9.680325e-13
99	0xb8c32e61	-9.306963e-05
100	0x2b30d855	6.282798e-13
101	0xb0ad1179	-1.2592373e-09
102	0xb7d6e1be	-2.5615907e-05
103	0xad469112	-1.1287209e-11
104	0x2e8b1087	6.323924e-11
105	0xaeae7c12	-7.934643e-11
106	0xaa31380d	-1.5740205e-13
107	0x2c329f4f	2.5383755e-12
108	0xab86db19	-9.582084e-13
109	0x2b2aa43f	6.062407e-13
110	0xab4f72b3	-7.370035e-13
111	0x313f6a4e	2.7854585e-09
112	0x2c556062	3.0322624e-12
113	0x32c8d72f	2.3380919e-08
114	0xaafa7120	-4.4487417e-13
115	0xb2bae718	-2.175834e-08
116	0x2a0247fa	1.1571291e-13
117	0x35f9f383	1.8622817e-06
118	0x2ee6edde	1.0501443e-10
119	0xa916fdf0	-3.3526946e-14
120	0x2ab6617b	3.2397335e-13
121	0xb5d7da45	-1.6082273e-06
122	0x2f1002d4	1.3097728e-10
123	0xafbfd86b	-3.4896472e-10
124	0x2bdeba68	1.5825787e-12
125	0xaacb20d8	-3.6082834e-13
126	0x32572b71	1.25245245e-08
127	0x2c53fa9f	3.0124026e-12
128	0xabe8e32e	-1.6547646e-12
129	0xb624ed2a	-2.4575952e-06
130	0xab95f92c	-1.0656246e-12
131	0x2e9c5b69	7.1102964e-11
132	0xb085a48d	-9.723792e-10
133	0x308bc831	1.0170479e-09
134	0xab850ee6	-9.454354e-13
135	0xada0b336	-1.826948e-11
136	0xac06c556	-1.9152089e-12
137	0x31c2a340	5.6647025e-09
138	0x31eabee0	6.8319963e-09
139	0x2bfbf60b	1.7902913e-12
140	0x2f72ac88	2.2071067e-10
141	0xb02f99a7	-6.388298e-10
142	0xb05bd808	-7.9978735e-10
143	0x2c3c7e22	2.6786425e-12
144	0xb1945e34	-4.3180766e-09
145	0xb0971c6b	-1.0994773e-09
146	0x2bbafb1d	1.3285793e-12
147	0x2a4a7312	1.7981127e-13
148	0x2f0bb97c	1.2707874e-10
149	0xac53f955	-3.012331e-12
150	0x3536c43a	6.808583e-07
151	0xaca7b169	-4.766122e-12
152	0xac356ac5	-2.5780916e-12
153	0xb26aa40a	-1.3657891e-08
154	0x2a8767f2	2.4052944e-13
155	0x2a75dcd6	2.1836989e-13
156	0xac051202	-1.8910433e-12
157	0xaa4b1403	-1.8036965e-13
158	0x2f1dd150	1.435343e-10
159	0x2e6bf8c0	5.3653748e-11
160	0x2b482d70	7.111733e-13
161	0xb3bfe269	-8.935314e-08
162	0xb04697ac	-7.224752e-10
163	0xb64528eb	-2.9379105e-06
164	0xb0b2c328	-1.3006671e-09
165	0x3b23201b	0.0024890963
166	0x2fc2fd11	3.546821e-10
167	0xbb31aafc	-0.0027109971
168	0xaf3e987d	-1.7334574e-10
169	0xac714c7a	-3.4290613e-12
170	0xb9c9a46e	-0.00038460217
171	0xac0d5ad2	-2.008772e-12
172	0xb4261996	-1.5469263e-07
173	0xb29bf688	-1.8156484e-08
174	0x27bec0d7	5.294467e-15
175	0xaf6ca161	-2.1521408e-10
176	0xaf961b75	-2.730435e-10
177	0xaa8969c7	-2.4409486e-13
178	0xacde1408	-6.3118434e-12
179	0xb2fb59b7	-2.9261043e-08
180	0xbac36b01	-0.0014909209
181	0x3067e661	8.43647e-10
182	0x3ba5d003	0.0050601973
183	0x3148e918	2.923633e-09
184	0x29f75775	1.0984175e-13
185	0xb053157d	-7.679189e-10
186	0xac278d94	-2.381072e-12
187	0x3af42f37	0.0018629794
188	0x2b4fd817	7.384106e-13
189	0x2ea1b896	7.3542214e-11
190	0x30aab495	1.2420452e-09
191	0x2b848d77	9.418428e-13
192	0x2c3c3eeb	2.6751333e-12
193	0xbb110aa0	-0.0022131577
194	0x2e5bc122	4.996637e-11
195	0xb6fa2355	-7.454694e-06
196	0xb0086fc8	-4.963536e-10
197	0x2e06e51e	3.067157e-11
198	0x2c2e0c1d	2.4733611e-12
199	0x30c96138	1.4652306e-09
200	0x2c0d0c9a	2.00443e-12
201	0x2eb2ccb8	8.130868e-11
202	0x2b76be80	8.766113e-13
203	0x2e6e3a54	5.416674e-11
204	0x31dc15db	6.4053274e-09
205	0x31f90c34	7.248241e-09
206	0x3089f1a1	1.0036737e-09
207	0x3096f4a4	1.0983467e-09
208	0x31dd8077	6.4465513e-09
209	0xbb0fa6de	-0.002191953
210	0xb1d83bd0	-6.2932273e-09
211	0xbb163c99	-0.0022924303
212	0x2ed3c073	9.629355e-11
213	0x2bb567c4	1.2889624e-12
214	0x39b4bcbe	0.000344729
215	0xbadd6586	-0.0016891218
216	0xab6cec10	-8.4171645e-13
217	0xb1d2c26d	-6.133908e-09
218	0xba0a2520	-0.0005269814
219	0x2bd249df	1.4941901e-12
220	0x303e4c29	6.922983e-10
221	0xaa65f7e3	-2.0425289e-13
222	0xaf0a4d64	-1.2578522e-10
223	0x2b8c9111	9.987862e-13
224	0xb5dcd303	-1.645269e-06
225	0x2c14d146	2.1148235e-12
226	0x37621588	1.3475663e-05
227	0xac1012ad	-2.0473998e-12
228	0xafac66f4	-3.135977e-10
229	0xb0c1d120	-1.4102035e-09
230	0xbb47d877	-0.0030494013
231	0xaf9ab81e	-2.814326e-10
232	0xac8601be	-3.8087025e-12
233	0xab274de3	-5.943841e-13
234	0xbb5908c2	-0.0033116792
235	0xac3f1b86	-2.715801e-12
236	0x3a5808f3	0.00082410796
237	0xab21b44d	-5.744891e-13
238	0x2aa228ff	2.8805428e-13
239	0xbb0150ef	-0.0019732078
240	0xb7b8b5a0	-2.2019085e-05
241	0x2b078dd8	4.815848e-13
242	0xaba2dda3	-1.1572309e-12
243	0x2a7028b8	2.1330409e-13
244	0x2c6ec022	3.392849e-12
245	0x2f0c09d0	1.2736412e-10
246	0x3065dd9d	8.3624646e-10
247	0xade2c61b	-2.5781202e-11
248	0xbb25739f	-0.0025245917
249	0xab25f85f	-5.896446e-13
250	0x2c5938ff	3.0869194e-12
251	0xb8ad7ca9	-8.2725026e-05
252	0xafa73827	-3.0417022e-10
253	0x2fe7f722	4.2194254e-10
254	0xabb53249	-1.287478e-12
255	0xbaf48c6f	-0.0018657575

fc2.bias f4 [300]
0	0xbb7d9fde	-0.0038700025
1	0xba69c2d2	-0.0008917275
2	0xbb45a865	-0.0030160185
3	0xba376d24	-0.0006997159
4	0xba5045fd	-0.00079449994
5	0xbb35e25f	-0.0027753336
6	0xba944b8c	-0.0011314019
7	0xbe38fecb	-0.18065946
8	0xbe8e56bd	-0.2780055
9	0xb8a6910b	-7.942513e-05
10	0xbb1a5d2a	-0.0023554065
11	0xb91f3fb2	-0.0001518715
12	0xbf0a9d8e	-0.5414666
13	0xbad5e85f	-0.0016319862
14	0xbb59766d	-0.003318216
15	0xbb146fe3	-0.0022649697
16	0x3ee4d531	0.44693902
17	0xb96c5c8a	-0.00022541187
18	0xba1a2b0c	-0.0005881048
19	0xbb31ff06	-0.0027160062
20	0xba5aa5e6	-0.0008340761
21	0xbb2dd70b	-0.002652588
22	0xba1ef703	-0.00060640293
23	0xbb1439b2	-0.0022617397
24	0xbe9f4189	-0.31104687
25	0xb9be28e5	-0.00036270093
26	0xbb6cefb2	-0.0036153612
27	0xba4d8c7d	-0.0007841064
28	0xbbad51aa	-0.005289276
29	0xba503bba	-0.000794347
30	0xbe678203	-0.2260819
31	0xbacf7767	-0.0015828431
32	0xb913d6e8	-0.00014099071
33	0xb9868196	-0.0002565502
34	0xb7d07283	-2.4848856e-05
35	0xbe80154c	-0.25016248
36	0xbb8c267e	-0.0042770496
37	0xbab48493	-0.001377242
38	0x3e3c6e67	0.1840149
39	0xbaea3133	-0.0017867446
40	0xba6d2358	-0.0009046099
41	0xbb1344b2	-0.0022471366
42	0xb9f39710	-0.00046461122
43	0xbb366e85	-0.002783687
44	0x3a6372e6	0.0008676484
45	0xba246c81	-0.0006272272
46	0xbb9066ef	-0.004406802
47	0xbb70e63a	-0.003675832
48	0xbae40cef	-0.0017398874
49	0xba946b26	-0.0011323437
50	0xba854860	-0.0010168664
51	0xbb4adad9	-0.0030953197
52	0xb9f6dfdb	-0.00047087562
53	0xb9d04db9	-0.0003973076
54	0xba8daaf2	-0.0010808392
55	0x3613252d	2.1926346e-06
56	0xbaac83d7	-0.001316185
57	0xbad9f1dd	-0.0016627867
58	0xba4994fe	-0.0007689743
59	0xba77bcbb	-0.0009450425
60	0xbba8d4fc	-0.005152343
61	0xb9982c97	-0.0002902492
62	0xba7dd00f	-0.0009682187
63	0xbb1d41af	-0.002399545
64	0x3c7f5398	0.015583895
65	0xba180424	-0.0005798957
66	0xba2d36f9	-0.0006607618
67	0xbaf98abb	-0.0019038537
68	0xbb4d0214	-0.0031281756
69	0xbb2a1d60	-0.002595745
70	0x3e5ae2cd	0.2137558
71	0xba9dffee	-0.0012054422
72	0xba1a9c97	-0.00058979675
73	0xbb627477	-0.0034554282
74	0x3a8b0bd0	0.0010608379
75	0xbb5b5de3	-0.003347271
76	0xbaa06dde	-0.0012239774
77	0xbafe338c	-0.0019394024
78	0xbb4b1a06	-0.0030990853
79	0xbb665b77	-0.0035149732
80	0xbc26897e	-0.010164617
81	0xbb8ae4b4	-0.0042386893
82	0xba1cf7fe	-0.00059878814
83	0xba9e226f	-0.0012064705
84	0xbaab7dd1	-0.0013083761
85	0xb8d10503	-9.96683e-05
86	0xbb66f03d	-0.0035238408
87	0xbab2bae9	-0.0013636026
88	0xbdad2d40	-0.084558964
89	0xbb058f0e	-0.0020379457
90	0xbb135f79	-0.0022487326
91	0xbae209e7	-0.0017245383
92	0xbedd5e9b	-0.4323624
93	0xb9830c1e	-0.00024995295
94	0xbb73b782	-0.0037188237
95	0x3e14f389	0.14546026
96	0xbb1ca452	-0.0023901653
97	0xbaffba61	-0.0019510501
98	0xba47b95c	-0.0007618868
99	0xbb47bb21	-0.0030476528
100	0xbb239430	-0.0024960153
101	0xbb3fd0b5	-0.0029268686
102	0xbaa15531	-0.0012308714
103	0xbe162d8d	-0.14665814
104	0xbc082702	-0.008310081
105	0x3d86a255	0.06573931
106	0xbb8c4fc0	-0.004281968
107	0xba290c3e	-0.00064486626
108	0xb8a81902	-8.015522e-05
109	0xba02bb39	-0.0004987005
110	0xbacd5760	-0.0015666299
111	0xbc45e5e9	-0.012078741
112	0xbb2ff42c	-0.0026848419
113	0xb92e9c2e	-0.00016652115
114	0xbaab9672	-0.0013091101
115	0xb943ff52	-0.00018691763
116	0xbbaca5cb	-0.0052687875
117	0xba4ec73d	-0.0007887965
118	0xbb73ef22	-0.0037221392
119	0xbb0931ef	-0.0020934304
120	0xba122d60	-0.00055762194
121	0xbb9d09b2	-0.0047924155
122	0xba820e20	-0.0009922422
123	0xb9d7af3d	-0.00041138558
124	0x3e90b905	0.2826616
125	0xbbcf539f	-0.006327107
126	0xbc3e8b25	-0.011629854
127	0x3e425913	0.18979292
128	0xbafe1e9e	-0.0019387787
129	0xbb05ee2d	-0.0020436153
130	0xbc0984c0	-0.0083934665
131	0xba9ebf3a	-0.0012111433
132	0xbb7f6d02	-0.0038974886
133	0xbb035a71	-0.002004292
134	0xbbcbb55e	-0.006216689
135	0xb9dcc9fb	-0.00042112157
136	0xbb7c7d14	-0.00385267
137	0xbb6d1b75	-0.0036179696
138	0xb9a15d0a	-0.00030777632
139	0xb970e546	-0.00022973595
140	0xbb4b72a8	-0.0031043682
141	0xbb8b03b0	-0.004242383
142	0x3e86a786	0.26299685
143	0xb8d657b6	-0.000102206526
144	0xbab98255	-0.0014153222
145	0xbbafa391	-0.005360075
146	0xbb179fb5	-0.0023135964
147	0xbb14ad77	-0.00226864
148	0xba619d7f	-0.00086065376
149	0xbb7e22f6	-0.0038778163
150	0xba876f0b	-0.0010332776
151	0xbb78a122	-0.003793784
152	0xbbf126cf	-0.0073593627
153	0xb813de50	-3.5254576e-05
154	0xbb8a239f	-0.004215672
155	0xba810d6a	-0.0009845917
156	0xba201cb3	-0.0006107792
157	0xbb3c5167	-0.0028735043
158	0xbb62252e	-0.0034507024
159	0xba5434a2	-0.0008095001
160	0xb93e3e92	-0.00018143121
161	0xb9d31447	-0.00040260164
162	0xbaefbbf6	-0.001829027
163	0xba0df967	-0.0005415887
164	0xba8e5b2f	-0.0010860915
165	0xbbda4f93	-0.006662318
166	0xb8bd9f93	-9.041945e-05
167	0xb96fab9c	-0.00022856746
168	0xbb06b576	-0.0020554936
169	0xbb008a1b	-0.0019613567
170	0xba08efa8	-0.00052237
171	0x3dffa23a	0.12482114
172	0xbbec7d20	-0.0072170645
173	0xbb684bbf	-0.0035445539
174	0xbb1baf44	-0.002375559
175	0xbb18d995	-0.0023323048
176	0xbae289d6	-0.001728351
177	0xbac40765	-0.0014955817
178	0xbb699b4c	-0.0035645543
179	0xbb9988d3	-0.0046855
180	0x3f154fe2	0.58325016
181	0xba79d454	-0.00095302355
182	0xbb873427	-0.00412609
183	0xbafc3582	-0.0019242021
184	0xba45bdd5	-0.0007543241
185	0xba0531b2	-0.00050809525
186	0x3e8b0cfb	0.2715834
187	0xb9ce496e	-0.0003934609
188	0xbbdbed46	-0.006711635
189	0xbaa59e1a	-0.0012635619
190	0x3ee36747	0.44414732
191	0xba2a380b	-0.00064933364
192	0xba643cb8	-0.00087065576
193	0xbaececad	-0.0018075906
194	0xba4e6c84	-0.00078744465
195	0xbaa42f7e	-0.0012526361
196	0xb916e4ba	-0.00014390322
197	0xbbcc7a51	-0.006240167
198	0xbb17d410	-0.002316717
199	0xbaa55d73	-0.0012616351
200	0xba94368e	-0.0011307762
201	0xbabd0b2d	-0.0014422886
202	0xba25d64e	-0.00063261844
203	0xbb33435c	-0.0027353382
204	0xba275a6a	-0.0006384017
205	0xbaf95941	-0.0019023792
206	0xb9a2f617	-0.000310824
207	0xbb8e1287	-0.0043357047
208	0xbadcf9c4	-0.0016859104
209	0xb94bdb3b	-0.00019441258
210	0xbb3db838	-0.0028948914
211	0xba51f007	-0.0008008484
212	0xbbbb2871	-0.005711608
213	0xb99a8d22	-0.0002947832
214	0xba41003b	-0.00073624
215	0xbae9e96c	-0.0017846054
216	0xbb0c6557	-0.0021422708
217	0xbb1653f0	-0.0022938214
218	0xbaca805f	-0.0015449635
219	0xb97c31b9	-0.00024051116
220	0xbb6f70f0	-0.0036535822
221	0xbaa23fe8	-0.0012378665
222	0xbb22c869	-0.0024838692
223	0xb9da8e8c	-0.00041686406
224	0xbb5b3ca8	-0.0033452902
225	0xba694dac	-0.00088998186
226	0xbbc85043	-0.0061130836
227	0xbb47dbc4	-0.003049598
228	0xbbbeb34f	-0.005819715
229	0xba208cc7	-0.0006124493
230	0xbacccc11	-0.0015624781
231	0xb991738c	-0.00027742644
232	0xbaea46be	-0.0017873866
233	0xb9bb3587	-0.000357073
234	0xbadc68ef	-0.0016815941
235	0xbb6cc920	-0.0036130622
236	0xbc1de650	-0.00963743
237	0xb985d839	-0.00025528835
238	0xbb1d7753	-0.0024027422
239	0xba54b48f	-0.00081140635
240	0x3f0d9027	0.55298084
241	0xbb51065c	-0.003189466
242	0xbad60024	-0.0016326946
243	0xbdad1a7a	-0.08452316
244	0xbb14047e	-0.0022585685
245	0xb93f5618	-0.00018247252
246	0xba98cb98	-0.0011657355
247	0xbb881926	-0.0041533886
248	0xbac6253a	-0.0015117296
249	0xbb5d0440	-0.0033724457
250	0xbaae1b76	-0.001328333
251	0xbac4ce58	-0.0015015109
252	0xbc0e49ac	-0.008684557
253	0x3e91b6fc	0.28459918
254	0xbaec8c37	-0.0018047158
255	0xba08c28e	-0.0005216979

fc3.weight f4 [1, 300]
0	0x3acfc397	0.0015851137
1	0xb97b6ab1	-0.00023976971
2	0xb9bdd802	-0.00036209828
3	0xbb28d510	-0.002576176
4	0xb906ecb1	-0.0001286741
5	0x3ac9739b	0.0015369536
6	0x3be7d9c5	0.0070755207
7	0xc0c5efd4	-6.185526
8	0x4085f239	4.185818
9	0x39f90fad	0.0004750466
10	0xbc66b138	-0.014080338
11	0x392de8c5	0.00016585279
12	0x40b40da3	5.6266646
13	0x3b651950	0.0034957714
14	0x3c5659ef	0.013082965
15	0x38820a93	6.200853e-05
16	0xc1397495	-11.590962
17	0xb8519117	-4.996461e-05
18	0xba3e6cb9	-0.0007264126
19	0x3b488629	0.0030597544
20	0xba32499b	-0.0006801129
21	0x39019a3c	0.00012359855
22	0xba6d6a60	-0.00090566836
23	0xbb419640	-0.002953902
24	0x403eabbf	2.9792325
25	0x3a61d048	0.0008614105
26	0xbc10d0fc	-0.008838888
27	0x3bb59df6	0.005542512
28	0xbc0316b2	-0.008001016
29	0x3bddae11	0.006765135
30	0x409d7054	4.919962
31	0xba671f30	-0.0008816598
32	0x395b4566	0.0002091132
33	0x39c80eb8	0.0003815794
34	0x38346ca5	4.3016527e-05
35	0x400a578c	2.1615934
36	0xba35a12f	-0.000692862
37	0xba0fbbfc	-0.0005483029
38	0x40416e18	3.0223446
39	0xbc5616c8	-0.013066955
40	0x385d801b	5.2809813e-05
41	0xbac88dc1	-0.0015301035
42	0x3ba48031	0.0050201644
43	0xba84dd52	-0.0010136759
44	0xbc4678ed	-0.012113792
45	0x3bbda52a	0.0057875114
46	0x3bd57417	0.006514083
47	0xbb8d4ab7	-0.004311885
48	0x3bbd94b7	0.0057855505
49	0x3b6fcf76	0.0036592162
50	0x3c8542d1	0.016267212
51	0xbb6b0f4b	-0.003586727
52	0xb98f0232	-0.0002727672
53	0xbb4e7da7	-0.0031508
54	0x3bf1a97f	0.007374942
55	0x3814753c	3.5395133e-05
56	0xbba5a549	-0.005055104
57	0x3b36e30d	0.002790633
58	0x3af4ab62	0.0018666799
59	0xbc7b0c13	-0.015322703
60	0x3c007d3f	0.007842361
61	0x3aef0b9c	0.0018237713
62	0xbbbddab7	-0.005793895
63	0x3c2090af	0.00980012
64	0xbc9aa3d6	-0.018876951
65	0xbb5a2002	-0.0033283238
66	0x3b990bcb	0.0046705953
67	0x3ba7aac8	0.0051167943
68	0x3a35bed0	0.00069330353
69	0xbbeea872	-0.007283264
70	0xc09daeaa	-4.9275713
71	0xbb5deb46	-0.0033862158
72	0xbb867bff	-0.004104137
73	0x3b7585b7	0.0037463733
74	0x3a46ac41	0.00075787684
75	0xbabe8b98	-0.0014537452
76	0x3bb34813	0.0054712384
77	0xbbce5718	-0.0062970035
78	0xbc32317f	-0.010876059
79	0xbb33d47d	-0.0027439885
80	0x3b8c6190	0.0042840913
81	0x3c2c563f	0.01051861
82	0x3a1d13b8	0.0005992013
83	0xbae9528d	-0.0017801091
84	0xbbf887a2	-0.007584528
85	0x38da11ba	0.00010398352
86	0x3be45c6d	0.006969026
87	0x3b69f6bb	0.0035700041
88	0x40a90bfb	5.2827125
89	0x3b9fe076	0.0048790528
90	0x39d61a27	0.00040836746
91	0xbc073a51	-0.00825365
92	0x409e255f	4.942062
93	0xb9e72595	-0.00044087754
94	0xbbbbd7e5	-0.0057325237
95	0x40dcf989	6.905461
96	0x3b77ebe7	0.0037829818
97	0x3c09ba6a	0.008406261
98	0x3b7acd1c	0.0038269227
99	0xba24e0d5	-0.0006289606
100	0xbbb4f463	-0.005522297
101	0x3bc4e607	0.0060088667
102	0x3be3766b	0.0069416068
103	0x402c2b79	2.6901534
104	0x3b3cf4c1	0.0028832408
105	0xc0eec65f	-7.461715
106	0xbbf6239f	-0.0075115706
107	0xb9b78c3e	-0.0003500897
108	0xb999da7a	-0.00029345212
109	0x3c243494	0.010022301
110	0xbb80c057	-0.0039291787
111	0x3c64394e	0.013929678
112	0xb98e836a	-0.00027182262
113	0xb7b0d5b8	-2.1080356e-05
114	0xbc244cbe	-0.010028062
115	0xb84a9f6c	-4.8309026e-05
116	0x3b601dd8	0.0034197476
117	0xba413743	-0.00073706004
118	0x3b242008	0.0025043506
119	0x3b9e10ab	0.0048237643
120	0x395476d0	0.00020262157
121	0x3a9126e2	0.001107421
122	0x3be7c5ea	0.0070731537
123	0x3a5bffde	0.0008392314
124	0xc081b765	-4.053637
125	0xbb2f6ba5	-0.0026767042
126	0xbaa2bae3	-0.0012415316
127	0xc05707e6	-3.359857
128	0x3a0b195b	0.00053062075
129	0x3bc57c83	0.006026806
130	0x3c0cf1f9	0.008602613
131	0xba0fa681	-0.0005479828
132	0x3b2b10b8	0.0026102494
133	0xbb5270cd	-0.0032110692
134	0x3c41de15	0.011832734
135	0x3949db03	0.00019250442
136	0x3c70eef2	0.0147054065
137	0x3b5f1bba	0.0034043626
138	0x3a449e79	0.0007500421
139	0xb9ba959f	-0.0003558816
140	0xbbb1b5d9	-0.0054232893
141	0x3a3f169d	0.00072894414
142	0xc0a0c9d1	-5.024636
143	0xb77f67e2	-1.52233715e-05
144	0xbb2a5be8	-0.0025994722
145	0xbb57dde0	-0.0032938644
146	0x3b92f874	0.0044851843
147	0xb595c262	-1.1157938e-06
148	0x3a34357c	0.0006874425
149	0xba1c2953	-0.00059570855
150	0xbba5a128	-0.0050546117
151	0xbb9d97ae	-0.0048093414
152	0x3a062deb	0.00051185366
153	0xb71bbd9f	-9.2828695e-06
154	0x3af8aa74	0.0018971697
155	0xb996433f	-0.00028660332
156	0x3b2cab01	0.0026347043
157	0xbbe22a6b	-0.0069020293
158	0xbb2665da	-0.0025390298
159	0x3b7ea7e2	0.003885739
160	0xba067642	-0.0005129316
161	0xbc7c758c	-0.015408885
162	0xbbbb6a09	-0.0057194275
163	0xbad159a2	-0.0015972147
164	0xbaf00df1	-0.0018314702
165	0xbbf68afc	-0.0075238924
166	0xb6941dce	-4.4142134e-06
167	0xba893214	-0.0010467195
168	0x3ba2429d	0.0049517886
169	0xb88b7c86	-6.651231e-05
170	0xb66bd511	-3.514175e-06
171	0x4008c0d6	2.1367698
172	0xbc378c79	-0.011202925
173	0x3ba43eab	0.0050123534
174	0xbc43d8ab	-0.011953513
175	0x3ba91a05	0.0051605725
176	0x3bfd85a7	0.00773688
177	0x3983dea4	0.00025152147
178	0xbbe3a637	-0.0069473046
179	0x3b970125	0.0046082907
180	0xc08c6e04	-4.3884296
181	0xbbafde3f	-0.00536707
182	0x3c873bf9	0.01650809
183	0x394f38c7	0.0001976221
184	0xb95f7ae0	-0.00021312712
185	0xbb92b9af	-0.0044777016
186	0xc038f057	-2.8896692
187	0x3b38c862	0.002819561
188	0x3b993485	0.0046754503
189	0xbc5a2e99	-0.013316774
190	0xc0952eb6	-4.661952
191	0xb86551b5	-5.467395e-05
192	0xbb500ddf	-0.003174655
193	0x3b2e93b5	0.0026638333
194	0xbbbb7c0f	-0.005721576
195	0x3aa07d5c	0.0012244391
196	0xb7fef2e2	-3.039226e-05
197	0xbc016d5b	-0.0078996075
198	0xbc29afec	-0.010356884
199	0x3a246448	0.00062710466
200	0xb844b7a1	-4.690106e-05
201	0x3b0f72dd	0.0021888532
202	0xbbdbb9d6	-0.006705503
203	0x3c24a02a	0.010047952
204	0x3b920207	0.004455808
205	0xbb1cb896	-0.0023913733
206	0xb8832f16	-6.255337e-05
207	0x39cd3e6b	0.00039147152
208	0xbc68bc0b	-0.014204989
209	0xb94c74e9	-0.00019498508
210	0x3b8d7950	0.00431744
211	0xbbdddeab	-0.006770929
212	0x3ae3414b	0.0017338184
213	0xba0f12d8	-0.0005457825
214	0x39edab44	0.00045331765
215	0x3c147181	0.009060265
216	0xbc0d982d	-0.008642239
217	0xbae567cc	-0.0017502247
218	0xbc8f1cc9	-0.01746978
219	0x3b3aabda	0.002848378
220	0x3b80bf5c	0.003929062
221	0xba821b5c	-0.0009926367
222	0xbc319819	-0.010839486
223	0x393fe132	0.00018299071
224	0x3ba3069f	0.0049751545
225	0xbb88e175	-0.004177267
226	0xbb4191ff	-0.0029536483
227	0xbb9d5e57	-0.004802506
228	0x39ec52bb	0.00045075067
229	0xba9ea154	-0.0012102523
230	0x3bc3b60c	0.0059726294
231	0xb89da49e	-7.517006e-05
232	0x3c2c2eaa	0.010509172
233	0xb7b0b468	-2.1064843e-05
234	0x3b87312e	0.0041257357
235	0x3b6dd79d	0.0036291846
236	0xbbc67a84	-0.0060570855
237	0x3900a089	0.00012266835
238	0xbc179b9e	-0.009253411
239	0xb8e362b1	-0.00010842586
240	0xc10216ad	-8.130536
241	0x3bcd5b33	0.0062669753
242	0x3b46c118	0.0030327495
243	0xc05d4479	-3.4573042
244	0xbb632019	-0.0034656583
245	0xb865b813	-5.4769287e-05
246	0x3ba342c0	0.0049823225
247	0xbc0e1973	-0.00867306
248	0x3ad6a9c8	0.0016377503
249	0x3c80d98c	0.015728734
250	0xbaa69e75	-0.0012712019
251	0x3a485206	0.0007641617
252	0x3c11c693	0.008897441
253	0xc0f97ac2	-7.796235
254	0x3c048620	0.0080886185
255	0x39e3bb7b	0.00043436498
