Pendulum-DDPG/multiagent-version/Models/733.0_actor.pt (torch_old, 489807 bytes, 5 tensors)

fc1.weight f4 [400, 3]
-0.0060113524 -0.005041642 -0.004875952 -0.001287153 -0.00031665724 -0.00041428432 -0.011461174 -0.004708651
-0.012442385 -0.005010118 -0.006831654 -0.00507885 -0.0075907437 0.00094756467 -0.0053865844 -0.004279994
-0.0017533347 -0.006417775 -0.0014841286 -0.00017727334 -0.001007519 -0.009911912 -0.0039590043 -0.01318224
-0.0025492238 -0.0015652331 -0.0013312709 -0.0006387181 -4.5792807e-05 -0.00016820806 -0.0015252953 -0.0037477477
-0.0004722743 -0.003584041 -0.0020815933 -0.001904471 -0.0010126813 -0.0003036017 -0.0003439036 -0.00394083
-0.00084901357 -0.0021179223 -0.0007637288 -0.00035385942 -0.0004579766 -0.00088499044 -0.00018835493 -0.00048660432
-0.0036947422 -0.0020364453 -0.0027973414 -0.0017330064 0.00067458063 -0.0041134246 -0.00090824213 -0.0004807186
-0.00027232178 -0.0039652046 -0.002951352 -0.0018926075 -0.006820191 -0.003256491 -0.0038040772 -0.00152375
-0.0008562603 -0.0010848325 -0.0073856427 -0.0048890044 -0.0054235463 -0.013480849 -0.00077439006 -0.010292874
-0.0008894176 -0.00033889443 -0.0005900279 -0.00060649455 0.00060512876 -0.0004337419 -0.0021811817 -0.0020294753
-0.0074248747 -0.6122457 0.32813528 1.3842385 -0.00084483094 -0.00066832284 -0.0019415368 -0.0031097792
-0.0008154851 -0.0016649936 -0.0027910657 -0.0006496286 -0.00079422107 -0.01383505 -0.015611663 -0.011053557
-0.008820429 -0.0035149553 -0.008566015 -0.00769395 -0.0037752187 -0.005665817 -0.009155685 -0.00044662508
-0.006554143 -0.0022222772 -0.0014274667 -0.0015457944 -0.0013951168 -0.00080989033 -0.0021909494 -0.00082317414
-0.00022304992 -0.0005497386 -0.014634393 -0.0050486582 -0.006684304 -0.0032695655 -0.0027884434 -0.004277726
-0.00036561923 -0.00063450605 -0.00032992108 -0.019015172 -0.00033011532 -0.0036093225 -0.0054983543 -0.0033313315
-0.003241864 -0.003006858 -0.000874418 -0.0019555704 -0.00013623336 -0.00085810054 -0.0003171257 -0.008153234
-0.0045035854 -0.009687655 -0.0056137415 -0.0034935705 -0.0076161614 -0.0009865251 -0.00052768097 -0.0005483021
-0.0017285814 -0.00032536118 -0.0025257103 -0.0045766653 -0.0031891265 -0.0028041138 -0.0085091265 -0.0066169
-0.0039555533 -0.017269725 -0.009614038 -0.009786083 -0.005203936 -0.0015576871 -0.0024940767 -0.0043304167
-0.0005116673 -0.0017511643 -0.0013916048 -0.0034231988 -0.0017228049 -0.0015866078 -0.00081548415 -0.002413088
-0.0052375123 -0.0036673462 -0.0038909123 -0.0047222837 -0.0039585587 -0.00037458853 -0.0014101 -0.0021958097
-0.0014713767 -0.0024957205 0.002317441 -0.0037227029 -0.016053734 0.0031035205 -0.013168286 -2.9918356e-05
-0.0010507138 -0.00024950597 -0.0047657746 -0.0045013786 -0.0055546192 -0.010006689 -0.0065596555 0.000613061
-0.0009210863 -0.0006143399 -0.0004237028 -0.0061561023 0.0031625372 -0.0060407305 -0.00079834537 -0.00035153158
-0.0003450298 -0.02399381 -0.039021157 -0.0019833508 -0.003987728 -0.0028397697 -0.0040645734 -0.00086987426
-4.21028e-05 -0.00067139545 0.0025964049 0.001080356 -0.001313366 -0.00044005326 -0.0005016589 -0.00040413658
-0.005290031 -0.0017246695 -0.0013863363 -0.0018839261 -0.0013058395 -0.00069335394 -0.0014242239 -0.0014836304
-0.006453436 -0.0017367811 -0.00093945453 -0.0031952562 -0.010527469 -0.0053849733 -0.0040305364 -0.0028255912
-0.001985737 -0.0013230707 -0.0020054332 -0.00062379893 -0.0022948112 -0.0016029049 -0.002526682 -0.0068998747
-0.0045955265 -0.0018239006 -0.0012822537 -0.005541526 -0.0030009462 -0.002527512 -0.009392664 -0.011174043
-0.002910563 -0.013135883 -0.0013082857 -0.008535883 -7.8265206e-05 5.9757684e-05 -0.00010464616 -0.000576086
00000000: e1fa c4bb 5c34 a5bb 73c6 9fbb b0b5 a8ba
00000010: 0405 a6b9 4d34 d9b9 a6c7 3bbc 074b 9abb
00000020: 25db 4bbc ea2b a4bb 11dc dfbb 7b6c a6bb
00000030: c6bb f8bb fd65 783a f281 b0bb 313f 8cbb
00000040: 26d0 e5ba 334c d2bb 1887 c2ba 73e2 39b9
00000050: ba0e 84ba 9265 22bc 89ba 81bb 52fa 57bc
00000060: e110 27bb 8228 cdba 0a7e aeba a56f 27ba
00000070: a711 40b8 0261 30b9 6bec c7ba c69c 75bb
00000080: 959b f7b9 3be2 6abb 576b 08bb 719f f9ba
00000090: f2bb 84ba bb2c 9fb9 f64d b4b9 1422 81bb
000000a0: 5690 5eba d7cc 0abb f934 48ba 3586 b9b9
000000b0: 941c f0b9 b4fe 67ba 2481 45b9 ed1e ffb9
000000c0: 7d23 72bb e275 05bb 9a53 37bb 0c26 e3ba
000000d0: 57d6 303a e8c9 86bb 1917 6eba f508 fcb9
000000e0: 69c6 8eb9 8cee 81bb 786b 41bb 5f11 f8ba
000000f0: e97b dfbb da6a 55bb d34d 79bb 91b8 c7ba
00000100: a876 60ba f030 8eba 4303 f2bb f133 a0bb
00000110: 01b8 b1bb c7de 5cbc 7000 4bba 71a3 28bc
00000120: ce27 69ba a4ad b1b9 1aac 1aba 29fd 1eba
00000130: 81a1 1e3a da67 e3b9 28f2 0ebb f200 05bb
00000140: 5d4c f3bb 22bc 1cbf 5901 a83e ba2e b13f
00000150: a577 5dba 6332 2fba 2a7b feba 70cd 4bbb
00000160: 47c6 55ba ea3b daba 50ea 36bb d64b 2aba
00000170: 4633 50ba 68ac 62bc 10c8 7fbc fa19 35bc
00000180: 9083 10bc 2a5b 66bb 7958 0cbc 881d fcbb
00000190: a969 77bb 51a8 b9bb ba01 16bc 0129 eab9
000001a0: 23c4 d6bb a0a3 11bb d619 bbba 419c caba
000001b0: 5adc b6ba d24e 54ba 0896 0fbb 48ca 57ba
000001c0: 82e2 69b9 551c 10ba 18c5 6fbc 376f a5bb
000001d0: 0208 dbbb 3546 56bb 51be 36bb 2b2c 8cbb
000001e0: 95b0 bfb9 fb54 26ba 42f9 acb9 b5c5 9bbc
000001f0: 5413 adb9 628a 6cbb 8a2b b4bb 7852 5abb
00000200: 7475 54bb b50e 45bb 3339 65ba 0729 00bb
00000210: ddd9 0eb9 27f2 60ba e443 a6b9 2495 05bc
00000220: d092 93bb f8b8 1ebc 7af3 b7bb 63f4 64bb
00000230: fe90 f9bb 4a4e 81ba 1254 0aba eebb 0fba
00000240: 9191 e2ba 3d95 aab9 6386 25bb daf7 95bb
00000250: aa00 51bb 39c5 37bb dd69 0bbc 95d2 d8bb
00000260: 969d 81bb 3d79 8dbc 3384 1dbc cf55 20bc
00000270: c785 aabb 4e2b ccba aa73 23bb 2be6 8dbb
00000280: 6921 06ba 5387 e5ba 8266 b6ba bf57 60bb
00000290: bdcf e1ba b9f5 cfba 37c6 55ba e624 1ebb
000002a0: 709f abbb dc57 70bb adfe 7ebb 63bd 9abb
000002b0: ccb6 81bb 6c64 c4b9 1bd3 b8ba 93e7 0fbb
000002c0: 36db c0ba 3e8f 23bb 35e0 173b 97f8 73bb
000002d0: 1f83 83bc 6f64 4b3b cbbf 57bc 2ef9 fab7
000002e0: 1bb8 89ba 20d0 82b9 372a 9cbb 4d80 93bb
000002f0: 8603 b6bb 18f3 23bc 61f2 d6bb d4b5 203a
00000300: 0e75 71ba a70b 21ba 6d24 deb9 21b9 c9bb
00000310: 9242 4f3b 52f1 c5bb 0d48 51ba c54d b8b9
00000320: 1ee5 b4b9 ab8e c4bc a6d4 1fbd 1bfb 01bb
00000330: 7dab 82bb 6e1b 3abb 1d30 85bb 4608 64ba
00000340: 8a97 30b8 9600 30ba 7228 2a3b bb9a 8d3a
00000350: 4025 acba f3b6 e6b9 c281 03ba 4be2 d3b9
00000360: ff57 adbb 4e0e e2ba bab5 b5ba 12ee f6ba
00000370: b428 abba 32c2 35ba 06ad baba 6076 c2ba
00000380: 5877 d3bb b4a4 e3ba ba45 76ba 8167 51bb
00000390: 687b 2cbc 6e74 b0bb 9712 84bb 8e2d 39bb
000003a0: 2323 02bb e36a adba 966d 03bb 7086 23ba
000003b0: 8b64 16bb 9018 d2ba b196 25bb 5818 e2bb
000003c0: 1296 96bb f30f efba 4b11 a8ba b095 b5bb
000003d0: 86ab 44bb 9da4 25bb b0e3 19bc 5513 37bc
000003e0: 25bf 3ebb e337 57bc c97a abba 17da 0bbc
000003f0: 5022 a4b8 53a4 7a38 7b75 dbb8 7a04 17ba

fc1.bias f4 [400]
-0.008912015 -0.001397153 -0.01638863 -0.011605508 -0.012021306 -0.009252719 -0.0019419055 -0.02066402
-0.0026341723 -0.0006986286 -0.0037841105 -0.0039092368 -0.0010332098 -0.0029358838 -0.00081922015 -0.00086389005
-0.004584378 -0.0035327894 -0.00087136007 -0.0048462544 -0.0076346253 -0.001784499 -0.008262113 -0.015978504
-0.0009998122 -0.0002213336 -0.009472211 -0.4577081 -0.0024427094 -0.00410877 -0.0013502069 -0.023453495
-0.011522685 -0.012616343 -0.009289356 -0.0033326428 -0.004604584 -0.0011837484 -0.013440343 -0.00665085
-0.00066455867 -0.0072808336 -0.0070195277 -0.0031145427 -0.0007312718 -0.008637437 -0.012663111 -0.0017989331
-0.004124143 -0.0060554226 -0.008940591 -0.013768973 -0.0059507987 -0.003967583 -0.004179851 -0.0038034476
-0.0061775465 -0.0017886842 -0.0030510614 -0.004112653 -0.014535286 -0.0014821974 -0.010112231 -0.00647042
-0.0011163768 -0.004709698 -0.00072568294 -0.031726494 -0.0069840364 -0.0010421406 -0.0025340081 -0.00067483715
-0.004140282 -0.0015693547 -0.0077442126 -0.00434942 -0.0067327837 -0.0026299674 -0.0035250832 -0.008035772
-0.0037969653 -0.0056673237 -0.009954618 -0.010520386 -0.00029011787 -0.0010222911 -0.004748332 -0.0016842269
-0.005124686 -0.00409523 -0.0025310356 -0.009990189 -0.004140811 -0.006302656 -0.004394638 -0.030463433
-0.0049063023 -0.0007530742 -0.0065547293 -0.0025464531 -0.0059509324 -0.010362999 -0.00580489 -0.009415271
-0.01248341 -0.004102866 -0.00281764 -0.00045143085 -0.0010559513 -0.0022831764 -0.009470795 -0.0023922147
-0.010943917 -0.0085649565 -0.007802179 -0.0052843094 -0.0028802552 -0.0030080443 -0.0012967914 -0.006898979
-0.0014671354 -0.0012782175 -0.00634608 -0.001588813 -0.0016863435 -1.626236 -0.0016755185 -0.0012692822
-0.0016872172 -0.0031736647 -0.0037287388 -0.0043797153 -0.0008027473 -0.0013851817 -0.001030558 -0.00067548297
-0.010410572 -0.010957879 -0.00030216257 -0.0035070986 -0.0010871768 -0.0073203654 -0.003190378 -0.0040848744
-0.002399157 -0.0088402005 -0.013709546 -0.0055995584 -0.01671143 -0.0017114534 -0.002101326 -0.000511857
-0.0038348553 -0.0017301969 -0.0024999485 -0.004798217 -0.0014674688 -0.006181581 -0.0011376175 -0.008501145
-0.0031430211 -0.005076299 -0.0037425854 -0.008712655 -0.002232841 -0.00090526784 -0.00042650662 -0.007688738
-0.0071647647 -0.0051990617 -0.02168992 -2.206887e-05 -0.004211644 -0.0010869247 -0.0045195473 -0.015792463
-0.0056889523 -0.010280702 -0.004365719 -0.0029994838 -0.021279514 -0.00010447729 -0.0015474851 -0.0014090724
-0.00095195626 -0.0075081936 -0.0060496577 -0.0055436115 -0.00024274831 -0.0022892887 -0.015109443 -0.008736449
-0.0002638085 -0.0006329572 -0.0062805647 -0.0009879214 -0.007231009 -0.0046439576 -0.0033013113 -0.0038201034
-0.0041954676 -0.001423892 -0.029335152 -0.019149365 -0.0075133294 -0.008420811 -0.0045609064 -0.0037369635
-0.016817464 -0.008312803 -0.0037423887 -0.00072847836 -0.0030133629 -0.022063551 -0.0015870209 -0.009953381
-2.6405442e-05 -0.003953522 -0.0008821682 -0.0073237666 -0.0068083 -0.0007768016 -0.0028385494 -0.0053316196
-0.0036635806 -0.008016085 -0.0056233327 -0.00039599728 -0.013008971 -0.00857832 -0.0032838637 -0.0044714278
-0.0019844018 -0.00141109 1.1791862 -0.0049438607 -0.013266561 -0.0019950042 -0.0033061283 -0.0036061953
-0.0018011342 -0.0008103149 -0.002516437 -0.0057479227 -0.006868357 -0.0006275552 -0.0062910416 -0.0028330265
-0.012443666 -0.01589584 -0.001305912 -0.007909096 -0.013807068 -0.0007902421 -0.0018457118 -0.0020598408
00000000: b303 12bc ad20 b7ba 7341 86bc 0725 3ebc
00000010: 03f5 44bc b798 17bc 8987 feba 9747 a9bc
00000020: 14a2 2cbb 2c24 37ba d7fe 77bb 0e19 80bb
00000030: c56c 87ba f567 40bb efc0 56ba ae76 62ba
00000040: 8d38 96bb 5f86 67bb fc6b 64ba 54cd 9ebb
00000050: e12b fabb dae5 e9ba d05d 07bc 5ae5 82bc
00000060: 210c 83ba c915 68b9 5531 1bbc b758 eabe
00000070: dd15 20bb dca2 86bb 6df9 b0ba 8b21 c0bc
00000080: a5c9 3cbc c7b4 4ebc 6232 18bc 7868 5abb
00000090: 0de2 96bb 0128 9bba e234 5cbc 60ef d9bb
000000a0: c735 2eba 0f94 eebb 1104 e6bb 5b1d 4cbb
000000b0: d2b2 3fba 0984 0dbc f078 4fbc 2eca ebba
000000c0: d223 87bb 916c c6bb 8e7b 12bc 4297 61bc
000000d0: ebfe c2bb 8002 82bb 22f7 88bb 4343 79bb
000000e0: 046d cabb 4872 eaba 51f4 47bb 6fc3 86bb
000000f0: 6925 6ebc 4b46 c2ba c5ad 25bc d105 d4bb
00000100: 6453 92ba cf53 9abb c23b 3eba a4f3 01bd
00000110: 58da e4bb 7098 88ba 9a11 26bb 8ee7 30ba
00000120: 34ab 87bb ceb2 cdba 2ac3 fdbb 9485 8ebb
00000130: af9e dcbb 885b 2cbb 1505 67bb 78a8 03bc
00000140: 82d6 78bb f5b4 b9bb b218 23bc b25d 2cbc
00000150: f61a 98b9 66fe 85ba e597 9bbb 47c1 dcba
00000160: fbec a7bb 4731 86bb bbdf 25bb e4ad 23bc
00000170: a4af 87bb 8386 cebb e500 90bb 738e f9bc
00000180: 0cc5 a0bb f469 45ba 0ec9 d6bb 65e2 26bb
00000190: 0a00 c3bb 91c9 29bc f236 bebb 8242 1abc
000001a0: 3787 4cbc 5671 86bb 28a8 38bb 06ae ecb9
000001b0: d967 8aba 58a1 15bb 652b 1bbc b4c6 1cbb
000001c0: 1d4e 33bc 0854 0cbc 6ca9 ffbb 0028 adbb
000001d0: aac2 3cbb 9c22 45bb 19f9 a9ba d510 e2bb
000001e0: e54c c0ba dd89 a7ba c7f2 cfbb b83f d0ba
000001f0: 4c08 ddba 8028 d0bf 129d dbba 0b5e a6ba
00000200: 9d25 ddba 42fd 4fbb db5d 74bb b783 8fbb
00000210: 766f 52ba fc8e b5ba ca13 87ba e512 31ba
00000220: 1b91 2abc ad88 33bc 936b 9eb9 5ad7 65bb
00000230: 9a7f 8eba addf efbb a915 51bb 69da 85bb
00000240: 2d3b 1dbb 7dd6 10bc 019e 60bc 807c b7bb
00000250: 69e6 88bc d952 e0ba 66b6 09bb 242e 06ba
00000260: 3252 7bbb c6c7 e2ba 2dd6 23bb 5d3a 9dbb
00000270: 1558 c0ba dc8e cabb 1c1c 95ba 6348 0bbc
00000280: 25fb 4dbb 1557 a6bb 2a46 75bb 86bf 0ebc
00000290: db54 12bb 7f4f 6dba c09c dfb9 cff1 fbbb
000002a0: 67c6 eabb e45c aabb 0faf b1bc 8a20 b9b7
000002b0: d501 8abb 2477 8eba b618 94bb 325f 81bc
000002c0: 646a babb 6470 28bc 4e0e 8fbb fd92 44bb
000002d0: 6052 aebc d11a dbb8 fcd4 caba a0b0 b8ba
000002e0: b48c 79ba 4b07 f6bb 353c c6bb 2fa7 b5bb
000002f0: 418a 7eb9 e407 16bb 998d 77bc 5323 0fbc
00000300: c74f 8ab9 0aed 25ba 32cd cdbb 247d 81ba
00000310: 1af2 ecbb 572c 98bb d05a 58bb b35a 7abb
00000320: 227a 89bb e3a1 baba 4650 f0bc 21df 9cbc
00000330: 6032 f6bb 71f7 09bc a873 95bb d8e7 74bb
00000340: c7c4 89bc 6c32 08bc dd42 75bb 5bf7 3eba
00000350: d77b 45bb 9fbe b4bc 9603 d0ba 8113 23bc
00000360: 4181 ddb7 8c8c 81bb 4e41 67ba 35fc efbb
00000370: 2918 dfbb 46a2 4bba f506 3abb deb4 aebb
00000380: af18 70bb e655 03bc ef43 b8bb db9d cfb9
00000390: 9423 55bc 158c 0cbc 1736 57bb 0e85 92bb
000003a0: bd0c 02bb 53f4 b8ba 93ef 963f 1c00 a2bb
000003b0: fd5b 59bc 9ebe 02bb a1ab 58bb eb55 6cbb
000003c0: 0914 ecba 506b 54ba cfea 24bb 1259 bcbb
000003d0: f40f e1bb 8482 24ba 1525 cebb 4caa 39bb
000003e0: 85e0 4bbc fe37 82bc 232b abba 2795 01bc
000003f0: 0a37 62bc 4028 4fba d0eb f1ba 65fe 06bb

fc2.weight f4 [300, 400]
-4.759664e-07 1.0793113e-07 -2.5357205e-05 -1.5118231e-05 -9.356887e-06 -4.6658954e-07 2.3040823e-08 -7.3595736e-08
-1.3150989e-07 2.0918183e-08 -2.4725145e-07 -3.7669645e-07 -2.3272531e-07 2.7425603e-08 -1.6959132e-07 -1.8638024e-08
-2.759093e-07 -1.3617269e-08 -4.6200392e-07 -1.219238e-05 4.9881574e-08 -6.340705e-09 -4.6358673e-05 -2.6568625e-07
-3.978135e-09 -8.291663e-07 8.123946e-08 0.002159761 -8.934927e-07 -1.0499389e-05 -5.6415207e-08 1.9437584e-07
-5.769926e-07 -7.231238e-07 1.6810428e-06 -9.088735e-08 -1.2185407e-05 6.601253e-08 -9.821079e-08 -1.7101831e-06
-2.5814361e-07 -1.6332032e-06 1.3363223e-07 -4.2921094e-08 -2.9962894e-06 -3.6357e-06 -4.921388e-07 -3.83759e-07
-4.626785e-08 -2.9371147e-06 -1.2278254e-06 3.6545967e-07 -4.1504354e-08 -9.716115e-06 -7.9774245e-06 -1.3727929e-06
-3.5112935e-05 7.2352623e-06 -9.7879166e-08 -4.2719023e-07 -1.85732e-07 -7.6144266e-07 -2.1947008e-07 -3.4255997e-08
-1.6080786e-07 -9.320615e-08 -8.117291e-07 1.0442717e-06 -2.6120299e-05 9.546241e-09 -6.0342878e-05 -5.0107097e-08
7.342511e-07 -2.9780042e-06 -1.0837536e-07 -1.1600736e-06 -1.3720337e-05 2.385864e-06 -2.188811e-06 -2.591924e-07
4.4502372e-07 -2.4287801e-05 -1.8434957e-07 2.1545756e-07 -3.3454686e-09 -1.0333231e-05 -5.987322e-06 -3.3133713e-08
-6.7711746e-08 -1.1201437e-07 1.6699737e-08 -2.3490672e-07 6.440692e-08 -2.804493e-07 -1.2413045e-07 1.5385578e-07
1.5722583e-09 -4.533061e-07 -8.1296326e-07 -7.417282e-08 7.046608e-07 -1.3221619e-07 -1.8790413e-07 -3.4382708e-06
1.3602273e-07 2.2708493e-06 -1.4375624e-06 -1.290278e-06 -7.2197246e-08 -2.97528e-07 -2.2230875e-08 -1.7073365e-06
-1.651147e-06 -1.9283207e-06 1.2566527e-06 -1.8072217e-06 -2.666285e-07 -6.821376e-08 -7.404337e-07 -1.8466908e-09
2.5198653e-06 -1.3093645e-06 -4.7134396e-08 -1.2465938e-08 2.2918195e-08 -0.0024691825 -2.252048e-06 -3.810015e-09
-3.4033071e-06 -5.0421182e-08 2.7099563e-07 -2.0285079e-08 -1.6684608e-06 -2.3693256e-05 -8.771702e-05 -3.6502197e-06
-1.0442906e-07 -1.9937383e-07 2.1511944e-06 -1.1900577e-06 -1.0729101e-05 -6.937057e-09 -1.3527105e-08 -5.5978703e-08
-3.9784815e-08 -7.0618867e-06 8.0030605e-07 -9.185432e-09 -1.5135695e-06 -5.356899e-07 -1.7729014e-09 -9.18461e-07
-2.1730225e-08 -1.6895852e-07 -7.438537e-08 -1.2426384e-06 -5.040061e-07 1.5335428e-06 -9.494453e-06 9.397561e-07
-9.340327e-09 -1.6919761e-05 1.057523e-09 5.429871e-07 -1.8613655e-08 -4.5617426e-08 -2.9063104e-08 -8.797363e-08
-5.1498523e-07 3.6099017e-08 -8.774372e-06 1.9133418e-08 -2.1694433e-07 -9.3891494e-08 -1.6853008e-08 -2.6616178e-06
-1.0599433e-08 -1.3354959e-07 -2.490825e-07 -4.250666e-06 4.1309292e-08 -6.7178284e-08 1.8285176e-07 -1.4102652e-07
-7.0673747e-07 -1.2838198e-08 -4.9880724e-05 -2.0160812e-08 -1.9168367e-07 -1.0901144e-07 -3.3164353e-05 -2.6492972e-07
-2.1489697e-09 -2.559427e-07 -2.1390247e-06 -5.929961e-07 -6.808159e-07 -9.81299e-07 1.077786e-08 -1.2982504e-05
-8.9969426e-08 -1.998981e-07 -1.1936429e-06 1.574249e-05 -1.7177766e-07 -1.571069e-06 7.5242156e-08 -3.3200672e-07
-8.523675e-07 8.592402e-06 3.9215917e-07 4.65624e-08 -7.72512e-06 -3.064682e-06 -3.2282936e-09 -9.382863e-07
-7.505049e-09 3.255277e-07 -6.042518e-07 -2.3249359e-07 -4.4238514e-06 -8.2882705e-09 -6.6557044e-07 -6.635616e-07
-1.7212706e-06 -2.0434251e-07 1.9299778e-06 -3.3210814e-08 -1.6039416e-05 -5.8096066e-07 -1.2449934e-07 8.055439e-06
-6.5236376e-09 -5.537482e-09 -0.0023530144 9.4935594e-08 -4.273675e-05 -2.1702995e-06 -1.09475934e-07 -2.4428726e-08
-2.5808066e-07 -1.2244943e-09 -1.8247485e-07 -5.543656e-09 -8.4904616e-07 -1.5651384e-08 -7.650873e-07 -5.752604e-06
-8.0702135e-05 -7.263078e-07 -3.1972915e-09 2.8255505e-07 -3.9831566e-06 -6.689507e-10 9.0311076e-08 -1.3546014e-07
00000000: 5388 ffb4 c4c7 e733 2fb6 d4b7 4fa4 7db7
00000010: 86fb 1cb7 947f fab4 4eeb c532 af0b 9eb3
00000020: 2a35 0db4 92af b332 fbbd 84b4 c43c cab4
00000030: 0ce3 79b4 8a95 eb32 e818 36b4 7319 a0b2
00000040: af20 94b4 62f1 69b2 5609 f8b4 e08d 4cb7
00000050: 5f3d 5633 6edd d9b1 3f71 42b8 a4a3 8eb4
00000060: 0cb0 88b1 e093 5eb5 de75 ae33 c78a 0d3b
00000070: 5ad8 6fb5 8826 30b7 2d4d 72b3 a0b5 5034
00000080: a1e2 1ab5 b01c 42b5 31a0 e135 d92d c3b3
00000090: ed6f 4cb7 c6c2 8d33 f4e7 d2b3 7289 e5b5
000000a0: fd96 8ab4 6f34 dbb5 8c7c 0f34 3e58 38b3
000000b0: dc13 49b6 dafc 73b6 851b 04b5 6f07 ceb4
000000c0: 0ab8 46b3 3f1b 45b6 c2cb a4b5 6534 c434
000000d0: 8542 32b3 6502 23b7 c7d6 05b7 ce40 b8b5
000000e0: 3a46 13b8 6ec6 f236 a431 d2b3 9458 e5b4
000000f0: a06d 47b4 f165 4cb5 7aa7 6bb4 de20 13b3
00000100: 87aa 2cb4 9f28 c8b3 99e5 59b5 e728 8c35
00000110: ea1c dbb7 d000 2432 ac18 7db8 5635 57b3
00000120: 5a19 4535 b9d9 47b6 fcbb e8b3 d3b3 9bb5
00000130: 6630 66b7 d51c 2036 7de3 12b6 2227 8bb4
00000140: 98eb ee34 a8bd cbb7 a0f1 45b4 8658 6734
00000150: 1be6 65b1 e45c 2db7 b4e6 c8b6 e74e 0eb3
00000160: ed68 91b3 8d8c f0b3 1c73 8f32 ab3a 7cb4
00000170: 1450 8a33 a990 96b4 b848 05b4 8e33 2534
00000180: ec16 d830 ea5d f3b4 693a 5ab5 f048 9fb3
00000190: ec27 3d35 4ff7 0db4 b2c2 49b4 0bbd 66b6
000001a0: a50d 1234 e564 1836 45f2 c0b5 9d2d adb5
000001b0: db0a 9bb3 f0bb 9fb4 36f6 beb2 a327 e5b5
000001c0: fb9c ddb5 4c68 01b6 42aa a835 aa8f f2b5
000001d0: 2425 8fb4 e97c 92b3 37c2 46b5 a8ce fdb0
000001e0: f51a 2936 6cbd afb5 d170 4ab3 c629 56b2
000001f0: a5dd c432 02d2 21bb e421 17b6 3fe9 82b1
00000200: 5f64 64b6 ad8e 58b3 5b7d 9134 5c3f aeb2
00000210: e0ef dfb5 e1c0 c6b7 b7f4 b7b8 4cf6 74b6
00000220: 7c42 e0b3 7613 56b4 3d5d 1036 12ba 9fb5
00000230: 2301 34b7 005b eeb1 d664 68b2 3c6d 70b3
00000240: dedf 2ab3 25f5 ecb6 9dd4 5635 f5cd 1db2
00000250: da25 cbb5 54cc 0fb5 6caa f3b0 298c 76b5
00000260: 45a9 bab2 f76a 35b4 cabd 9fb3 bbc8 a6b5
00000270: 094b 07b5 21d4 cd35 5d4a 1fb7 8c43 7c35
00000280: 3177 20b2 e9ee 8db7 4858 9130 cac1 1135
00000290: dce3 9fb2 e4ec 43b3 71a6 f9b2 04ec bcb3
000002a0: 843d 0ab5 4a0b 1b33 a435 13b7 d55a a432
000002b0: 34f1 68b4 65a1 c9b3 28c4 90b2 3f9e 32b6
000002c0: cd18 36b2 d565 0fb4 a3b9 85b4 f1a0 8eb6
000002d0: 0c6c 3133 a743 90b3 e955 4434 136d 17b4
000002e0: a1b6 3db5 fe8e 5cb2 0537 51b8 182e adb2
000002f0: 9bd1 4db4 ac19 eab3 f419 0bb8 aa3b 8eb4
00000300: 13ad 13b1 7f68 89b4 2a8c 0fb6 622e 1fb5
00000310: 50c1 36b5 2db5 83b5 8829 3932 6ecf 59b7
00000320: 3735 c1b3 92a3 56b4 4235 a0b5 bd0e 8437
00000330: e271 38b4 85dd d2b5 d094 a133 a83e b2b4
00000340: 40ce 64b5 1628 1037 f289 d234 e6fb 4733
00000350: 239b 01b7 d6aa 4db6 bed8 5db1 8bde 7bb5
00000360: 8eef 00b2 30c4 ae34 de33 22b5 5aa3 79b4
00000370: 9870 94b6 3364 0eb2 a7a9 32b5 9b1f 32b5
00000380: 6806 e7b5 3e69 5bb4 c484 0136 ada3 0eb3
00000390: 628c 86b7 50f3 1bb5 1eae 05b4 d925 0737
000003a0: 8626 e0b1 3544 beb1 0835 1abb 65df cb33
000003b0: 3c40 33b8 76a5 11b6 0819 ebb3 56d7 d1b2
000003c0: 568e 8ab4 104b a8b0 4eee 43b4 847a beb1
000003d0: 02ea 63b5 c271 86b2 6660 4db5 7e06 c1b6
000003e0: a13e a9b8 7ef7 42b5 59b7 5bb1 12b2 9734
000003f0: 0ea7 85b6 38e1 37b0 0af1 c133 0073 11b4

fc2.bias f4 [300]
-0.002876041 -0.0038232366 -0.002351876 0.0003158796 -0.0041148355 -0.0017907018 -0.0006603345 -0.004899431
-0.005262348 -0.0016237871 -0.0015609926 -0.00050190184 -0.0004425754 -0.000660627 -0.00023926051 -0.0058987206
-0.0014247186 -0.00034447009 -0.00019272347 -0.0006192463 -0.0018236964 -0.0036096186 -0.00038827086 -0.0014106906
-0.006240601 -0.0015501601 -0.0013526194 4.81376e-05 -0.0022118576 -0.004736476 0.46138778 -0.0029722622
-0.00422071 -0.0015288988 -0.000467664 -0.0029110953 -0.002907737 -0.0023016129 -0.002127419 -0.005802591
-0.0022145119 -0.0026396504 -0.0005952636 -0.0027935097 -0.0061245346 -0.00075569353 -0.002783767 -0.0007150342
-0.0021017878 -0.0012022342 -0.002453081 -0.0019880566 -0.0025495605 -0.0021258679 -0.004842435 -0.0005711047
-0.005697672 -0.0012321013 -0.0058732466 -0.0024474906 -0.00021867247 -0.00061926857 -0.0021557745 -0.003192345
-0.005299551 -0.005015508 -0.0014799766 -0.00039434532 -0.0075955745 5.7897665e-05 -0.0022508267 -0.0012560074
-0.0056821383 -0.0049592266 -0.00092464685 -0.0030204817 -0.00036906934 -0.0026170479 -0.011489903 -0.0011993325
-0.0011113955 -0.0039657913 -0.0023472281 -0.0051252306 -0.0007684073 -0.0035693147 -0.00078140583 -0.004578814
0.000227078 -0.011362559 -0.002502531 -0.0014177286 -0.00015042628 -0.0011077186 -0.0008672028 -0.0007416314
-0.0029537221 -0.00067162595 -0.0015389513 -0.002174011 -0.0014118623 -0.0026256803 -0.00084182614 0.0019791955
-0.0050606374 -0.0012066099 -0.004691546 -0.0007823972 -0.0043544034 -0.000347683 -0.0064135264 -0.0006439233
-0.00033825135 -0.00043987154 -0.009326036 -0.0030197531 -0.0049254224 -0.00041104117 -0.00072634686 -0.003199038
-0.00035216348 -0.0007878893 -0.0016255046 -0.0017662453 -0.0010035107 -0.001762222 -0.0016394985 -0.0015988641
-0.00024404562 -0.00093424576 0.00096638186 -0.0076035187 -0.0019069086 -0.007015053 -0.002376401 -0.00017810309
-0.00034103091 -0.0031062618 -0.0032377557 -0.0025223158 -0.0011663906 -0.0035135206 -0.0005392408 -0.00089766574
-0.00213847 -0.00021585179 -0.0030843993 -0.0013970044 -0.00072558416 -0.0014377099 -0.003298486 -0.0032244495
-0.0013139447 0.003398211 -0.0038047396 -0.0050275773 -0.0025621052 -0.0014774246 -0.0012059076 -0.0076541523
-0.006759533 -0.0006189589 -0.001282456 -8.111801e-05 -0.0034094306 -0.0014085431 -0.0020201986 -0.0051439083
-0.00032408634 -0.004766285 -0.002072215 -0.0019382974 -0.0016876765 -0.013403852 -0.0013087626 -0.0023617726
-0.00051727315 -0.004989502 -0.0022102452 -0.006224489 -0.0009811759 -0.0030778053 -0.0036328195 -0.0011467703
-0.0015066721 -0.0033859059 -0.0035289647 -0.001666401 -0.0011421241 -0.004003684 -0.002839757 -0.011222771
-0.0026815366 -0.0023949577 -0.0012521683 -0.0009756871 -0.004862451 -0.0021322859 -0.00037508752 -0.004557983
-0.0055290353 -0.0022721237 -0.0013738035 -0.0028427204 -0.0010790486 -0.00095987873 -0.0009809624 -0.0044217585
-0.002349768 -0.0020904737 -0.0031201628 -0.0027350218 -0.0016897275 -0.00015358801 -0.0040796082 -0.00047828365
-0.00080713705 -0.0013730022 -0.0016569934 6.43475e-06 -0.002540889 -0.002021571 0.0001050134 -0.0048022466
-0.00045356047 -0.00021999294 -0.0045301705 -0.0024722263 -0.0021037718 -0.000269855 -0.001456511 -0.0034652464
-0.0041910973 -0.003441118 -0.0031414274 -0.00052295404 -0.00071043405 -0.0016914983 -0.002017127 -0.0053353007
-0.0014161929 -0.0031274597 -0.003664266 -0.0023030832 -0.004668814 -0.004395138 -0.0011358537 -0.0040617287
-0.0024945778 0.43005034 -9.628279e-05 -0.003633956 -0.00060420093 -0.0033193058 -0.011763582 -0.00015682256
00000000: f67b 3cbb 448f 7abb ef21 1abb a49c a539
00000010: bed5 86bb fbb5 eaba 4c1a 2dba 688b a0bb
00000020: c66f acbb 41d5 d4ba 389a ccba 1092 03ba
00000030: 7709 e8b9 ed2d 2dba 01e2 7ab9 0e4a c1bb
00000040: a0bd baba fe99 b4b9 d015 4ab9 ea54 22ba
00000050: 1909 efba 5a8f 6cbb d590 cbb9 ece6 b8ba
00000060: f57d ccbb be2e cbba 604a b1ba 5be7 4938
00000070: d0f4 10bb 7134 9bbb 053b ec3e 49ca 42bb
00000080: e24d 8abb 5565 c8ba cd30 f5b9 13c8 3ebb
00000090: bb8f 3ebb a8d6 16bb 2b6c 0bbb a923 bebb
000000a0: 5821 11bb fcfd 2cbb 770b 1cba 5113 37bb
000000b0: 52b0 c8bb bc19 46ba dc6f 36bb 2271 3bba
000000c0: 26be 09bb 4994 9dba dfc3 20bb 0e4a 02bb
000000d0: 8716 27bb 2552 0bbb 4aad 9ebb 30b6 15ba
000000e0: 89b3 babb 767e a1ba 5d74 c0bb 1466 20bb
000000f0: 724b 65b9 6956 22ba e547 0dbb a936 51bb
00000100: dba7 adbb 2159 a4bb c6fb c1ba 22c0 ceb9
00000110: 4ce4 f8bb 25d7 7238 9b82 13bb 9da0 a4ba
00000120: 3b31 babb 0281 a2bb 0064 72ba 46f3 45bb
00000130: a67f c1b9 c782 2bbb 2540 3cbc ec32 9dba
00000140: 3fac 91ba 78f3 81bb f4d3 19bb 8df1 a7bb
00000150: f16e 49ba 2aeb 69bb 42d7 4cba e009 96bb
00000160: c91b 6e39 072a 3abc 8101 24bb 14d3 b9ba
00000170: bfbb 1db9 de30 91ba ff54 63ba 0a6a 42ba
00000180: 3c93 41bb 0e10 30ba a3b6 c9ba da79 0ebb
00000190: 3d0e b9ba 9b13 2cbb ffad 5cba 64b5 013b
000001a0: b4d3 a5bb 1c27 9eba 8abb 99bb ca19 4dba
000001b0: 62af 8ebb 3949 b6b9 8f28 d2bb f6cc 28ba
000001c0: 5457 b1b9 8f9e e6b9 3bcc 18bc 0de7 45bb
000001d0: 7065 a1bb 0381 d7b9 5068 3eba f4a6 51bb
000001e0: 95a2 b8b9 5b8a 4eba e20e d5ba 5c81 e7ba
000001f0: 3b88 83ba 5cfa e6ba 71e4 d6ba fa90 d1ba
00000200: 7fe6 7fb9 2ce8 74ba ca54 7d3a f026 f9bb
00000210: 3cf1 f9ba 88de e5bb 65bd 1bbb 2fc1 3ab9
00000220: 65cc b2b9 6d92 4bbb 8730 54bb 704d 25bb
00000230: 93e1 98ba 1843 66bb d65b 0dba 5451 6bba
00000240: 9325 0cbb 4656 62b9 a223 4abb b01b b7ba
00000250: 2135 3eba 8a71 bcba 692b 58bb 4951 53bb
00000260: ab38 acba 85b4 5e3b f058 79bb 60be a4bb
00000270: fee8 27bb 25a6 c1ba 8b0f 9eba afcf fabb
00000280: 137f ddbb a141 22ba 1518 a8ba e61d aab8
00000290: c170 5fbb dd9e b8ba 4f65 04bb 3b8e a8bb
000002a0: 22ea a9b9 7f2e 9cbb 00ce 07bb 780e feba
000002b0: 0735 ddba d49b 5bbc c98a abba f8c7 1abb
000002c0: 9d99 07ba fa7e a3bb c3d9 10bb ccf6 cbbb
000002d0: cd9a 80ba 01b5 49bb 9914 6ebb 3a4f 96ba
000002e0: 877b c5ba 13e6 5dbb 3446 67bb 246b daba
000002f0: 53b3 95ba 5631 83bb 371b 3abb b7df 37bc
00000300: b8bc 2fbb b9f4 1cbb cc1f a4ba 41c5 7fba
00000310: 3255 9fbb d2bd 0bbb 65a7 c4b9 225b 95bb
00000320: e92c b5bb e9e7 14bb 3211 b4ba ef4c 3abb
00000330: dd6e 8dba 5fa0 7bba a393 80ba 66e4 90bb
00000340: 91fe 19bb 5400 09bb a57b 4cbb 0d3e 33bb
00000350: d979 ddba 780c 21b9 3cae 85bb 25c2 fab9
00000360: 0d96 53ba 4ff6 b3ba 792f d9ba 15ea d736
00000370: 0b85 26bb 557c 04bb a43a dc38 2a5c 9dbb
00000380: dbcb edb9 e8ad 66b9 d371 94bb 1305 22bb
00000390: 6fdf 09bb 537b 8db9 66e8 beba 3019 63bb
000003a0: 7955 89bb 6184 61bb 68e0 4dbb da16 09ba
000003b0: 6c3c 3aba 44b5 ddba c631 04bb bfd3 aebb
000003c0: 8c9f b9ba 11f6 4cbb 2f24 70bb 53ef 16bb
000003d0: dafc 98bb 1705 90bb ede0 94ba 4018 85bb
000003e0: 127c 23bb 8f2f dc3e 6eeb c9b8 aa27 6ebb
000003f0: 3d63 1eba b688 59bb 0abc 40bc bc70 24b9

fc3.weight f4 [1, 300]
0.0028878576 0.00088966015 0.00055842125 -0.0023492025 0.004773543 -0.0005057056 -0.00042967155 0.0029960007
-0.0014974659 0.00020970973 -0.00027257463 0.0005586429 0.000804668 0.0005304557 -9.793944e-05 -1.2573196e-07
0.0011518882 0.000265536 0.00046558533 0.0007112525 0.0005511307 0.0035480945 4.0400875e-05 -0.0012580872
0.004795002 -0.0001156719 0.0012931935 -0.00038511606 0.00048565934 0.004055174 2.7493265 0.0031001563
-0.0059239576 0.0011905853 0.0008531671 0.0023549832 0.0015553841 0.000105455314 0.0018643527 0.00213424
0.0020436998 0.00013414999 0.0010511711 0.0022234619 0.0012772293 0.0017822244 0.0012722436 0.0001233871
0.00018469167 0.00043674544 -0.0017613384 -0.00026127312 0.0026109274 0.00014072224 0.0011466529 0.00040660612
0.0043902 0.00088616356 0.005293982 0.0010213299 -0.00032559453 0.0008469883 1.4519232e-05 0.00046658263
0.0029915248 -0.003959419 0.0001465978 0.000222953 0.0024947277 -0.00060300983 0.0006082876 0.00078104687
0.0017726417 0.0009390286 0.0030161426 0.0010151372 8.373719e-05 -0.0027764153 0.0051000314 0.0010602674
1.4635222e-06 -0.00068435154 -0.0003446414 -0.003295568 0.00029507195 0.00057187944 0.0032349047 0.0055277236
0.00015346463 0.006386071 0.0017444178 0.0011146708 -7.1608825e-05 -0.0015417747 0.000650856 0.00040853192
-0.0018065518 9.008901e-05 0.0004715758 -0.0018845111 0.00096684037 0.0010152202 0.00081012497 -0.0057311123
0.002555881 0.00038591525 0.0030560242 0.00069025595 0.0009169331 0.00041255032 0.0020745294 0.00048457982
0.00029915723 0.0003168071 0.004228876 0.0016540027 -0.0024402223 0.0007606172 -6.0244238e-05 0.001605843
0.0002610753 -0.0009328701 0.0014586729 0.0016568427 0.0009424205 0.0011471395 0.001794832 0.000899696
0.00026045853 0.0005132356 -0.0032096384 0.00041918262 0.0002627581 0.006226653 8.39445e-05 0.0003122253
0.00043026436 -0.00067632936 -0.0013655737 0.001984727 0.0004066571 0.00023026601 -4.879807e-05 -0.00091181276
0.001704654 -4.6353023e-05 -0.001454553 0.0010658221 0.00056101196 0.00076273206 0.0012823984 -0.0022555578
-0.0013326611 -0.0076401434 -0.0004583511 0.0013978097 0.0024462603 0.0004999939 -0.00052008196 0.0042732754
0.0028315482 0.0005721888 0.001087431 9.101645e-05 0.0015061487 -8.3689185e-05 0.0012605378 0.0013015602
-0.00032312088 0.0004653723 0.0018642611 0.0003323734 0.00014361854 0.0010345132 0.0005856877 -0.00090385653
0.0008315911 0.0027366069 0.0011816963 0.0003874007 -7.840994e-05 -0.0001334722 -0.0028552418 0.00037125332
-0.00033400263 0.004701674 0.004000158 0.00052258896 0.0012576303 -0.00015813726 0.0013642187 0.0037658787
0.0010542335 -0.0004862566 0.00013780451 0.0009601044 0.004577131 0.0013740811 -0.00024802293 0.00030357164
0.005510356 -0.0009324497 0.001592687 0.0038149774 0.0010351867 -0.0014338216 0.0004715863 0.000610926
0.0015318502 0.0017458602 0.0018513349 0.0013819553 -5.2343144e-05 -0.00059108314 0.0070604836 0.00062321214
0.00076019607 0.00041074402 0.00088368444 0.00079205923 0.0044616647 0.001231166 0.001123778 0.0037098106
-2.6052567e-05 0.00015247976 -0.0048405784 0.00021930647 0.0012361477 0.0001173634 0.0008496421 0.0018113044
0.0020740167 -0.00042108397 0.00056245946 0.0009811003 -0.004143414 -0.0019684888 0.0004241679 0.0037705323
0.0003069368 0.0011019357 0.0014160301 9.610298e-06 -0.00092423224 0.0011245798 0.00092562434 -0.0006569094
0.0008033455 -2.7509835 -0.0003209703 0.0029285366 0.00057793624 0.0013336148 0.0032240278 -0.00040308735
00000000: 3642 3d3b 1538 693a 0463 123a 14f5 19bb
00000010: 626b 9c3b 5491 04ba 8a45 e1b9 8d58 443b
00000020: 9e46 c4ba 87e5 5b39 59e8 8eb9 e471 123a
00000030: 5bf0 523a 480e 0b3a d664 cdb8 f000 07b4
00000040: f4fa 963a a337 8b39 ce19 f439 5973 3a3a
00000050: c179 103a 2687 683b 1c74 2938 67e6 a4ba
00000060: 641f 9d3b e194 f2b8 6080 a93a 67e9 c9b9
00000070: 18a0 fe39 44e1 843b f7f4 2f40 fe2b 4b3b
00000080: c21d c2bb 6a0d 9c3a 13a7 5f3a 1056 1a3b
00000090: 08de cb3a e427 dd38 4c5d f43a 9bde 0b3b
000000a0: 98ef 053b 9daa 0c39 73c7 893a 80b7 113b
000000b0: b468 a73a 8799 e93a 69c1 a63a 7961 0139
000000c0: cba9 4139 fbfa e439 b6dc e6ba 7cfb 88b9
000000d0: 181c 2b3b d78e 1339 494b 963a c02d d539
000000e0: abdb 8f3b 6e4d 683a 2479 ad3b 25de 853a
000000f0: 8fb4 aab9 6c08 5e3a a097 7337 a99f f439
00000100: 750d 443b 04be 81bb 0cb8 1939 7dc8 6939
00000110: 967e 233b 4e13 1eba 7d75 1f3a 2bbf 4c3a
00000120: fc57 e83a 2529 763a 7aaa 453b 5a0e 853a
00000130: 109c af38 85f4 35bb 2a1e a73b acf8 8a3a
00000140: 3d6e c435 0e66 33ba fcb0 b4b9 75fa 57bb
00000150: e3b3 9a39 2eea 153a b200 543b e821 b53b
00000160: 59eb 2039 3f42 d13b f3a4 e43a 251a 923a
00000170: b22c 96b8 6015 caba 359e 2a3a 3a30 d639
00000180: d2c9 ecba 2bee bc38 d53d f739 b301 f7ba
00000190: 8f73 7d3a 2311 853a 915e 543a 0ecc bbbb
000001a0: 9180 273b ab54 ca39 9447 483b 4bf2 343a
000001b0: 575e 703a 914b d839 d4f4 073b 340f fe39
000001c0: 34d8 9c39 2119 a639 6292 8a3b 1fcb d83a
000001d0: 23ec 1fbb 2864 473a c2ae 7cb8 267b d23a
000001e0: efe0 8839 da8b 74ba f130 bf3a 6a2a d93a
000001f0: c50c 773a 9d5b 963a 9140 eb3a 94d9 6b3a
00000200: 278e 8839 a88a 063a cc58 52bb bdc5 db39
00000210: ccc2 8939 f308 cc3b 5c0b b038 2cb2 a339
00000220: 1b95 e139 b24b 31ba 0dfd b2ba 3212 023b
00000230: 9834 d539 9073 7139 87ac 4cb8 b806 6fba
00000240: b26e df3a 2e6b 42b8 b3a6 beba 0eb3 8b3a
00000250: e010 133a 15f2 473a 2616 a83a fbd1 13bb
00000260: b0ac aeba 2b5a fabb d84e f0b9 b636 b73a
00000270: 7051 203b 0612 033a 1c56 08ba d506 8c3b
00000280: 7f91 393b f1fe 153a 2188 8e3a 16e0 be38
00000290: f769 c53a 4a82 afb8 a138 a53a 1d99 aa3a
000002a0: 8d68 a9b9 36fd f339 395a f43a 6742 ae39
000002b0: 4f98 1639 8198 873a d688 193a c9f0 6cba
000002c0: 22ff 593a a558 333b 26e3 9a3a 0b1c cb39
000002d0: 0470 a4b8 acf4 0bb9 021f 3bbb c7a4 c239
000002e0: 131d afb9 8010 9a3b c213 833b 5afe 083a
000002f0: 12d7 a43a a6d1 25b9 95cf b23a f6cc 763b
00000300: 352e 8a3a 42f0 feb9 9e7f 1039 84af 7b3a
00000310: c2fb 953b 831a b43a 1309 82b9 b228 9f39
00000320: 3790 b43b a46f 74ba b5c1 d03a b304 7a3b
00000330: 1aaf 873a 12ef bbba 3e3f f739 8d26 203a
00000340: 5dc8 c83a 59d5 e43a 7ea8 f23a ba22 b53a
00000350: 068b 5bb8 ebf2 1aba a15b e73b 0f5f 233a
00000360: e547 473a 2159 d739 0fa7 673a 32a2 4f3a
00000370: 2833 923b 135f a13a bc4b 933a 4b20 733b
00000380: 768b dab7 f9e2 1f39 b79d 9ebb a2f5 6539
00000390: 3c06 a23a ff20 f638 84ba 5e3a 4a69 ed3a
000003a0: 3aec 073b efc4 dcb9 0472 133a 4398 803a
000003b0: 7ac5 87bb c301 01bb da62 de39 091b 773b
000003c0: 5cec a039 d46e 903a 169a b93a ea3b 2137
000003d0: 2d48 72ba a366 933a 99a5 723a 7234 2cba
000003e0: 9b97 523a 1d10 30c0 e847 a8b9 b1ec 3f3b
000003f0: a580 173a b0cc ae3a 364a 533b 7855 d3b9
