Pendulum-DDPG/normal/Models/2000_actor.pt (torch_old, 489871 bytes, 5 tensors)

fc1.weight f4 [400, 3]
-0.0014957907 -0.0018306408 -0.0008935507 -0.0008396549 -0.0029405942 -0.0011258026 -0.0033632715 -0.0017870518
-0.0014619734 -0.0006295082 -0.0007172722 -0.0010243214 -0.010758987 -0.0031416276 -0.005502001 -0.011680688
-0.011789477 -0.020091267 -0.002373758 -0.0014076105 -0.0012404273 -0.0013502769 -0.00073072576 -0.0007542536
-0.020777194 -0.02741238 -0.012336001 -0.000775007 -0.00088826526 -0.00036092894 -0.005922125 -0.0021306304
-0.0071036555 -0.012756675 -0.0049170596 -0.007640422 -0.002443952 -0.0002471596 -0.0009634265 -0.00015062472
-0.0004132924 -4.2886164e-05 -0.002498972 -0.0027513816 -0.010176088 -0.0045138155 -0.0041232174 -0.00338673
-0.024664234 -0.012992199 -0.009050571 -0.0004919778 -0.00053483207 -0.00040803268 -0.0024799886 -0.0034588366
-0.0068190843 -0.00019023642 -0.000138536 -0.00010817984 -0.00018089062 -0.00018556327 -0.0012692866 -0.0032470028
-0.0034085785 -0.0006710229 -0.018996207 -0.0074252896 -0.01305011 -0.014010346 -0.0071823946 -0.0064892876
-0.0013653634 -0.0019283881 -0.0025555198 -0.005087504 -0.002253887 -0.0037921155 -0.001167914 -0.0013348667
-0.0013319433 -0.00017562554 -0.0008922055 -8.814151e-05 -0.0032227647 -0.003027377 -0.0031444987 -0.0034367237
-0.0020395145 -0.003115151 -0.006051294 -0.0041304315 -0.003154537 -0.0020559886 -0.0009913003 -0.0015303432
-0.0032514203 -0.0030022294 -0.004075272 -0.005298241 -0.003194793 -0.003321905 -0.0342309 -0.01851487
-0.015349608 -0.037788667 -0.005330615 -0.03385358 0.0016010043 -0.001938853 -0.0039631967 -0.0017461973
-0.0008241074 -0.0006023056 -0.009204421 -0.0054366686 -0.010032683 -0.008015196 -0.005225724 -0.0035973522
0.0005013479 -0.0006127316 -0.00073391 -0.0057737078 -0.0045623267 -0.001838716 -0.0015764383 -0.0006296185
-0.0005206215 -0.0020209802 -0.00095869455 -0.0010691362 -0.0026699477 -0.0021062344 -0.0023304555 -0.00047041549
-0.0001910489 -0.0005647486 -0.0031083701 -0.0004947854 -0.0025124154 -0.011109308 -0.005549656 -0.010399778
-0.0041051665 -0.001902324 -0.00128115 -0.0017677196 -0.0010026485 -0.0010559561 0.000732202 0.00022132258
-0.0023485792 -0.0026570584 -0.0014118527 -0.0020680442 -0.008454243 -0.004025295 -0.000691821 -0.043427825
-0.034531906 -0.0021109618 -0.00079582655 -0.0001683759 -0.00033760403 -0.01261341 -0.019859564 -0.0077303327
-0.009922756 -0.015995434 -0.009564442 -0.008413711 -0.00060139125 -0.009444128 -0.0014651346 -0.0026512917
-0.0022740532 -0.0005564072 -0.00097105175 -0.0014897381 -0.0068155034 -0.0042012213 -0.0053335666 -0.018160556
-0.005552911 -0.0064420025 -0.0018376403 -0.0010331923 -0.0020066493 -0.01078742 -0.0060697286 -0.005769574
-0.011664719 -0.005616978 -0.007518438 -0.003922672 -0.001298458 -0.004547372 -9.9530545e-05 -0.00012503877
-5.0978124e-05 -0.0018401784 -0.008637421 -0.003515736 -0.0006080004 -0.002870903 -0.0007912841 -0.0073405458
-0.005327458 -0.0038984104 -0.0019569292 -0.0009730901 -0.0010673355 -0.004722668 -0.0014918724 -0.0036391714
-0.0011435909 0.0040469277 -0.012345036 -0.0019382577 -0.001596009 -0.0020845614 -0.0035877025 -0.008633608
-0.0056039346 -0.0012363603 -0.00057872833 -0.0010108805 -0.003909463 -0.0020417403 -0.0021358891 -0.020960346
-0.013869156 -0.014612564 -0.0012716487 -0.001103636 -0.0031953307 -0.0029293916 -0.0018086653 -0.002911028
-0.0029699793 -0.0020444265 -0.0022211303 -0.001380716 -0.0008229632 -0.0012928414 -0.0029650808 -0.0007182035
-0.0059951516 -0.0036644132 -0.0015460507 -0.003085486 0.001452295 -0.0001325272 -0.0020652316 -0.0018961754
00000000: 680e c4ba 1df2 efba 2c3d 6aba 491c 5cba
00000010: fcb6 40bb ab8f 93ba 556a 5cbb 823b eaba
00000020: b09f bfba 9505 25ba 5307 3cba 8642 86ba
00000030: 7646 30bc c4e3 4dbb 214a b4bb 5b60 3fbc
00000040: a728 41bc 7196 a4bc 0d91 1bbb 927f b8ba
00000050: d595 a2ba c6fb b0ba 2d8e 3fba 1ab9 45ba
00000060: ef34 aabc ed8f e0bc f01c 4abc d729 4bba
00000070: 79da 68ba 103b bdb9 630e c2bb 0ca2 0bbb
00000080: c8c5 e8bb 5f01 51bc 491f a1bb 815c fabb
00000090: b62a 20bb 3395 81b9 758e 7cba 04f1 1db9
000000a0: 2baf d8b9 abe0 33b8 cbc5 23bb 8650 34bb
000000b0: 9bb9 26bc a1e8 93bb 0e1c 87bb e7f3 5dbb
000000c0: a60c cabc 3bdd 54bc d948 14bc 12f8 00ba
000000d0: f933 0cba 38ed d5b9 4e87 22bb a6ad 62bb
000000e0: a072 dfbb 337a 47b9 f943 11b9 9cde e2b8
000000f0: 75ad 3db9 c393 42b9 315e a6ba abcb 54bb
00000100: 7562 5fbb 96e7 2fba ef9d 9bbc d84f f3bb
00000110: 21d0 55bc a68b 65bc 4b5a ebbb 17a4 d4bb
00000120: fef5 b2ba f8c1 fcba 827a 27bb 14b5 a6bb
00000130: f3b5 13bb 2485 78bb b114 99ba b2f6 aeba
00000140: 9a94 aeba 1f28 38b9 e6e2 69ba 9dd8 b8b8
00000150: 0535 53bb f566 46bb ef13 4ebb a83a 61bb
00000160: 60a9 05bb 9027 4cbb ef49 c6bb 9258 87bb
00000170: 59bc 4ebb c4bd 06bb 85ee 81ba cc95 c8ba
00000180: c815 55bb 0dc1 44bb dc89 85bb de9c adbb
00000190: bb5f 51bb 51b4 59bb b335 0cbd 7fac 97bc
000001a0: ec7c 7bbc 4ac8 1abd 71ac aebb 0daa 0abd
000001b0: cad8 d13a 1c21 feba b4dd 81bb a9e0 e4ba
000001c0: e908 58ba 0be4 1dba 24ce 16bc 1526 b2bb
000001d0: 1f60 24bc 2b52 03bc 8d3c abbb 8ec1 6bbb
000001e0: e36c 033a b99f 20ba de63 40ba 5f31 bdbb
000001f0: 927f 95bb 1201 f1ba 7ea0 ceba fb0c 25ba
00000200: 517a 08ba 6c72 04bb e750 7bba 4222 8cba
00000210: 4afa 2ebb c008 0abb 8eba 18bb 19a2 f6b9
00000220: 4c54 48b9 a30b 14ba ccb5 4bbb 7cb4 01ba
00000230: 56a7 24bb d103 36bc e4d9 b5bb d563 2abc
00000240: a284 86bb 6757 f9ba 43ec a7ba d4b2 e7ba
00000250: 4d6b 83ba 0268 8aba 3ff1 3f3a d412 6839
00000260: 9fea 19bb 0b22 2ebb ea0d b9ba 0688 07bb
00000270: aa83 0abc 9fe6 83bb 525b 35ba 60e1 31bd
00000280: 5471 0dbd 1058 0abb 049f 50ba 108e 30b9
00000290: 7200 b1b9 7aa8 4ebc 86b0 a2bc bb4e fdbb
000002a0: 0e93 22bc db08 83bc 2db4 1cbc a9d9 09bc
000002b0: afa6 1dba 8bbb 1abc c209 c0ba 4bc1 2dbb
000002c0: 4808 15bb dbdb 11ba 2e8e 7eba 5143 c3ba
000002d0: 9654 dfbb 66aa 89bb 33c5 aebb 72c5 94bc
000002e0: 32f5 b5bb 6f17 d3bb fadc f0ba 2e6c 87ba
000002f0: fd81 03bb b8bd 30bc 93e4 c6bb b20e bdbb
00000300: 611d 3fbc a00e b8bb 3b5d f6bb c289 80bb
00000310: 0531 aaba 1f02 95bb 0ebb d0b8 d71c 03b9
00000320: 58d1 55b8 2432 f1ba f883 0dbc 4368 66bb
00000330: 3762 1fba c225 3cbb 2d6e 4fba f688 f0bb
00000340: f591 aebb 797c 7fbb d33f 00bb f916 7fba
00000350: d6e5 8bba 9cc0 9abb ee8a c3ba 2a7f 6ebb
00000360: 8be4 95ba 179c 843b d542 4abc 230d feba
00000370: 2d31 d1ba 239d 08bb a91f 6bbb fa73 0dbc
00000380: 36a1 b7bb 5e0d a2ba cdb5 17ba 857f 84ba
00000390: f41a 80bb b8ce 05bb 46fa 0bbb 08b5 abbc
000003a0: 753b 63bc 8969 6fbc 73ad a6ba e1a7 90ba
000003b0: c168 51bb 09fb 3fbb bd10 edba f2c6 3ebb
000003c0: fca3 42bb c9fb 05bb 6290 11bb 24f9 b4ba
000003d0: 20bc 57ba 8f74 a9ba cd51 42bb d245 3cba
000003e0: fa72 c4bb a726 70bb daa4 caba dd35 4abb
000003f0: ef5a be3a 00f7 0ab9 d658 07bb 1789 f8ba

fc1.bias f4 [400]
-0.0029758879 -0.004872364 -0.00363624 -0.0018168904 -0.006038064 -0.03798248 -0.0027457094 -0.001691421
-0.048459366 -0.001124531 -0.010805433 -0.013137235 -0.002192565 -0.00041103153 -0.011802842 -0.008846738
-0.023556732 -0.00094241544 -0.0149363745 -0.00027464516 -0.0019204615 -0.004173059 -0.024099318 -0.014040273
-0.004808662 -0.007417103 -0.0026534526 -0.00090366823 -0.00641734 -0.006517721 -0.007228473 -0.0026487238
-0.0077235186 -0.0067640925 -0.034159686 -0.05262184 -0.0053999163 -0.0015496516 -0.018573288 -0.0086113075
-0.0012859757 -0.0052035637 -0.0012589737 -0.0021896674 -0.005787766 -0.0007916655 -0.0031522918 -0.01711929
-0.0029784094 -0.0023868158 -0.0020400176 -0.0033928077 -0.0067191473 -0.03319651 -0.00068779086 -0.03504579
-0.027188903 -0.013055454 -0.0046349484 -0.0020706912 -0.011513864 -0.012150193 -0.003104873 -0.012198111
-0.014750413 -0.0057460396 -0.0004416465 -0.013747109 -0.003635384 -0.008222667 -0.002213108 -0.006008269
-0.014621478 -0.0039002537 -0.014294631 -0.0016536164 -0.004329992 -0.027477436 -0.0048478222 -0.005862664
-0.004243845 -0.0022055001 -0.0063654236 -0.0052604363 -0.008313522 -0.002543768 -0.004694411 -0.012114453
-0.0047275806 -0.019509263 -0.008040122 -0.0048699453 -0.00050782063 -0.009926137 -0.0065903654 -0.00862828
-0.003424305 -0.0058762347 -0.00064998324 -0.019273445 -0.00034103045 -0.0024937135 -0.0023345 -0.0021236262
-0.0018105467 -0.0024324134 -0.0017720433 -0.00056259794 -0.00055229553 -0.0062474804 -0.0027409988 -0.0037389845
-0.0040114946 -0.0012502038 -0.008848091 -0.00023823565 -0.017442279 -0.004105421 -0.008895406 -0.006079861
-0.0005394683 -0.0006564965 -0.24269995 -0.0011417494 -0.018011916 -0.009199793 -0.0073198485 -0.0073683606
-0.0037007052 -0.0010482062 -0.0010236917 -0.0016014597 -0.008398603 -0.0034249467 -0.016645469 -0.007172383
-0.2177386 -0.003329765 -0.005060876 -0.001028425 -0.0025708897 -0.003460836 -0.004026884 -0.012026115
-0.00022900854 -0.00087053777 -0.0016955903 -0.001843872 -0.006469386 -0.0592849 -0.001234643 -0.005268801
-0.062014215 -0.0036928777 -0.0014943422 -0.035766788 -0.0018695238 -0.0069682957 -0.061897155 -0.00046443997
-0.00521283 -0.0034728306 -0.013853791 -0.019132484 -0.007995055 -0.0037749812 -0.0030777042 -0.01677908
-0.0018199715 -0.01575908 -0.0053585917 -0.0017743325 -0.0033538933 -0.009040098 -0.0036993094 -0.035323363
-0.0066105113 -0.0046958025 -0.004224939 -0.0037875886 -0.004228585 -0.004832047 -0.0179977 -0.0035521237
-0.0061586145 -0.0025337562 -0.0002704665 -0.01555258 -0.010294016 -0.0018099765 -0.006013863 -0.0014347516
-0.0024659436 -0.0009246855 -0.0053898506 -0.009972553 -0.005057745 -0.6604536 -0.034800358 -0.0035826014
-0.005422011 -0.025484214 -0.0048317495 -0.0033158737 -0.0018017169 -0.0072150286 -0.003237876 -0.03206969
-0.0018529191 -0.0012647294 -0.029607208 -0.0051824283 -0.004440469 -0.02778479 -0.007559019 -0.000815089
-0.0064415964 -0.0061479867 -0.003471868 -0.0012774407 -0.008118542 -0.027237952 -0.011227844 -0.019915063
-0.0024776976 -0.0036019399 -0.0006882535 -0.00048482718 -0.009836931 -0.0015451332 -0.0064606452 -0.01410041
-0.0016538188 -0.021550968 -0.01871646 -0.0040109023 1.3240402 -0.007188021 -0.002080985 -0.0031096726
-0.0075882305 -0.019383676 -0.0019373538 -0.0063734157 -0.0023732923 -0.022398379 -0.00097161083 -0.0087942295
-0.0010279667 -0.0054632197 -0.012088196 -0.01814593 -0.000444716 -0.0016572507 -0.008455532 -0.0048823333
00000000: 1d07 43bb 5aa8 9fbb fc4d 6ebb ba24 eeba
00000010: f4da c5bb 8493 1bbd 5cf1 33bb acb2 ddba
00000020: 547d 46bd 0065 93ba 4509 31bc 8f3d 57bc
00000030: 23b1 0fbb b87f d7b9 b560 41bc e9f1 10bc
00000040: 0cfa c0bc 6e0c 77ba b2b7 74bc 40fe 8fb9
00000050: ffb7 fbba 28be 88bb ef6b c5bc 2c09 66bc
00000060: fb91 9dbb 2b0b f3bb 8ce5 2dbb 26e4 6cba
00000070: 8d48 d2bb 9b92 d5bb d4dc ecbb 3696 2dbb
00000080: 9215 fdbb 52a5 ddbb 07eb 0bbd 008a 57bd
00000090: c8f1 b0bb ae1d cbba 0227 98bc 7116 0dbc
000000a0: 2f8e a8ba a882 aabb 2604 a5ba 8680 0fbb
000000b0: 4da7 bdbb c687 4fba ae96 4ebb c13d 8cbc
000000c0: 6b31 43bb 206c 1cbb d1b1 05bb de59 5ebb
000000d0: 4b2c dcbb 10f9 07bd dd4c 34ba 2d8c 0fbd
000000e0: 43bb debc 8be6 55bc c4e0 97bb 6fb4 07bb
000000f0: a5a4 3cbc 9a11 47bc 207b 4bbb 96da 47bc
00000100: b7ab 71bc 4649 bcbb ca8c e7b9 8e3b 61bc
00000110: 9f3f 6ebb 5db8 06bc ca09 11bb 03e1 c4bb
00000120: ec8e 6fbc 669b 7fbb 0734 6abc 29be d8ba
00000130: 9be2 8dbb 5c18 e1bc 7bda 9ebb 971b c0bb
00000140: f40f 8bbb 278a 10bb 0b95 d0bb bd5f acbb
00000150: 7035 08bc 58b5 26bb 93d3 99bb b37b 46bc
00000160: d2e9 9abb e4d1 9fbc b7ba 03bc 1094 9fbb
00000170: 441f 05ba 3ca1 22bc fef3 d7bb a15d 0dbc
00000180: 4e6a 60bb 6e8d c0bb a363 2aba 58e3 9dbc
00000190: 55cc b2b9 926d 23bb 69fe 18bb 892c 0bbb
000001a0: de4f edba 2069 1fbb e843 e8ba 4f7b 13ba
000001b0: edc7 10ba aab7 ccbb 54a2 33bb c009 75bb
000001c0: db72 83bb e1dd a3ba 95f7 10bc e5ce 79b9
000001d0: 1ce3 8ebc c486 86bb 09be 11bc 9239 c7bb
000001e0: 1b6b 0dba bc18 2cba 5686 78be c1a6 95ba
000001f0: ba8d 93bc bbba 16bc 57db efbb 4a72 f1bb
00000200: 8887 72bb f763 89ba 652d 86ba 12e8 d1ba
00000210: 4b9a 09bc 1275 60bb 145c 88bc 4f06 ebbb
00000220: def6 5ebe 3038 5abb b4d5 a5bb 37cc 86ba
00000230: 5f7c 28bb 31cf 62bb f4f3 83bb 2f09 45bc
00000240: 0322 70b9 cd34 64ba 923e deba 14ae f1ba
00000250: 25fd d3bb b9d4 72bd bfd3 a1ba e8a5 acbb
00000260: 9e02 7ebd 3504 72bb cedd c3ba 3280 12bd
00000270: cf0a f5ba 4d56 e4bb df87 7dbd 1480 f3b9
00000280: 63d0 aabb 6e98 63bb 03fb 62bc babb 9cbc
00000290: b1fd 02bc ad65 77bb 4fb3 49bb 4874 89bc
000002a0: 1c8c eeba 3019 81bc 2097 afbb b890 e8ba
000002b0: fecc 5bbb eb1c 14bc 1d70 72bb 3baf 10bd
000002c0: fd9c d8bb 3fdf 99bb 5b71 8abb 3139 78bb
000002d0: f18f 8abb 2656 9ebb ea6f 93bc bfca 68bb
000002e0: 34ce c9bb 600d 26bb 66cd 8db9 40d0 7ebc
000002f0: 3ca8 28bc bc3c edba f00f c5bb 460e bcba
00000300: ab9b 21bb 9866 72ba 589d b0bb eb63 23bc
00000310: 71bb a5bb 7d13 29bf d28a 0ebd 14ca 6abb
00000320: 20ab b1bb 45c4 d0bc a753 9ebb 214f 59bb
00000330: 9627 ecba 0c6c ecbb 8c32 54bb 825b 03bd
00000340: a6dd f2ba 47c5 a5ba d18a f2bc 5cd1 a9bb
00000350: 5b81 91bb ee9c e3bc a6b1 f7bb b2ab 55ba
00000360: 0714 d3bb 0d75 c9bb 4888 63bb cc6f a7ba
00000370: a203 05bc 2022 dfbc fef4 37bc ea24 a3bc
00000380: de60 22bb 860e 6cbb e96b 34ba 6730 feb9
00000390: 142b 21bc 1186 caba d2b3 d3bb 6805 67bc
000003a0: f3c4 d8ba a88b b0bc 4353 99bc e36d 83bb
000003b0: 267a a93f 7e89 ebbb 2361 08bb a6cb 4bbb
000003c0: b1a6 f8bb 84ca 9ebc ceee fdba 16d8 d0bb
000003d0: 3d89 1bbb ce7c b7bc b3b3 7eba ac15 10bc
000003e0: d7bc 86ba cf04 b3bb 920d 46bc c6a6 94bc
000003f0: c528 e9b9 1b38 d9ba 1289 0abc fbfb 9fbb

fc2.weight f4 [300, 400]
-2.0336422e-07 3.5979923e-08 -1.0974466e-06 -3.3916763e-08 9.849542e-07 -3.931404e-07 -2.6785435e-11 -1.547637e-09
1.6563604e-07 3.414027e-08 9.731267e-07 -9.4954646e-07 6.226021e-08 6.4886315e-08 4.5538327e-06 -4.305125e-07
-7.7252093e-07 -2.8879636e-09 -2.9043156e-07 -7.3015913e-09 -5.869467e-06 -7.311968e-07 -1.2345702e-06 -7.27523e-09
1.3847153e-07 -1.8705192e-06 -4.606882e-06 -3.8856328e-07 -9.4516594e-08 -1.5896224e-09 -3.7377035e-08 1.9751718e-09
4.1986947e-09 1.3058771e-07 2.778135e-06 3.4080024e-08 -1.6021451e-07 -2.6602422e-08 1.4887019e-06 9.219728e-08
3.851419e-08 3.1700509e-09 -1.2318533e-07 -4.234571e-07 -8.18416e-07 -5.1826277e-09 7.71659e-08 2.180141e-07
1.2455935e-08 -2.3727681e-08 -1.0242282e-05 7.3903226e-05 -1.1278473e-07 2.528539e-09 -4.1495444e-08 3.0983338e-07
9.972341e-07 -1.3023586e-07 -5.97849e-07 -5.3291464e-05 3.9594585e-07 -5.184652e-08 1.2043458e-05 -2.3673815e-07
1.0269928e-07 -7.94876e-09 -2.6968848e-08 -1.7162236e-08 -2.1850512e-10 3.533501e-07 -1.9788723e-10 -9.550947e-08
1.448371e-06 6.0095964e-08 -8.111576e-08 -1.3571762e-08 7.558574e-08 -3.7275335e-08 -9.561383e-09 -2.293186e-09
-2.0864671e-07 -3.3787977e-08 1.9493733e-08 -3.582774e-08 1.8804247e-05 1.0148221e-07 -1.3478416e-07 -6.1486116e-07
-3.3297954e-07 -1.7518013e-07 -1.9544275e-05 -1.7052415e-07 2.1858393e-06 -1.3475213e-07 1.5491754e-05 -4.708912e-07
-5.6101744e-06 -1.3797616e-05 -1.3774925e-07 -5.030704e-07 1.5909261e-08 -6.503471e-09 3.2260314e-08 2.6787362e-07
-4.6361503e-08 -9.860898e-07 -4.6241877e-09 -2.3593247e-09 1.7322796e-10 -1.4910702e-07 -5.402402e-10 -5.293669e-08
-3.6537447e-06 1.1550032e-09 -1.7098171e-06 3.2193515e-08 -5.9853314e-06 4.494582e-08 -7.3580577e-07 7.863644e-07
-1.38067655e-08 -1.248735e-08 -0.001113948 -9.758546e-07 5.6888636e-09 -2.6091758e-08 -3.0303484e-06 -5.4012867e-06
-2.3043427e-07 2.8678429e-08 -1.2275598e-06 -2.3814014e-08 -2.605451e-09 -1.5230849e-07 -8.7044504e-07 2.5608432e-07
-0.0012804592 -2.4745376e-08 2.3493503e-07 -1.608942e-07 -1.2500655e-05 -2.7179502e-07 2.1020278e-05 -1.7798105e-06
-2.341068e-09 6.2556926e-10 -4.298681e-08 -1.2715965e-06 -8.810052e-08 4.3084464e-07 -4.707173e-06 7.977688e-06
5.6014204e-07 -1.434669e-07 9.41376e-10 -1.2404696e-08 7.8711416e-08 -4.3280874e-08 -4.6082604e-08 3.4723047e-07
-4.3226326e-05 -8.641398e-07 1.4899382e-06 -1.9020772e-06 -5.7793955e-08 3.2129974e-05 -4.0961023e-08 -7.6929376e-07
-2.137624e-07 -3.60253e-06 4.5292673e-08 -9.616059e-09 2.534008e-07 -2.5559652e-08 8.017435e-10 -1.3824706e-08
-8.945823e-07 -1.3011135e-08 -6.398766e-07 -3.6336703e-05 -2.1542699e-06 -5.2481983e-09 -4.3598266e-08 3.6880976e-08
-5.2169335e-06 7.696263e-11 -3.1077139e-09 -5.448286e-10 -9.506561e-08 -1.02880705e-07 -5.0913036e-07 -5.553046e-08
-3.429622e-07 -1.992088e-09 -9.2907015e-08 1.0985419e-06 -1.1117005e-06 -0.0012963519 3.2931075e-05 -3.5131683e-07
-1.2870441e-05 1.01565325e-08 -3.8452637e-08 -6.5979506e-08 -1.2099354e-05 -8.123787e-08 -5.0588125e-07 -4.0999277e-07
-3.0162882e-06 1.7095749e-07 -1.4101273e-06 2.3910025e-09 -9.187492e-08 -2.2402486e-07 1.3360643e-07 3.6882476e-08
-3.1090073e-09 -6.3915e-09 -1.905818e-06 -1.0771766e-08 -2.7326456e-07 -7.7344316e-07 8.5053725e-06 -2.382131e-05
-1.32350415e-08 -5.114087e-07 1.9750683e-08 -4.1615147e-09 1.1234762e-05 -4.8155556e-08 -4.633718e-06 9.442815e-07
-1.3609925e-09 -3.9548514e-08 -2.9623027e-06 -1.4344058e-09 -0.00050216704 -9.710127e-07 -1.2122931e-08 -1.8844065e-07
-4.309597e-05 -0.00018866114 -4.0303054e-09 -3.8116883e-07 -6.985472e-07 1.8086876e-08 -1.0969792e-08 -5.471459e-06
-1.2665032e-08 -1.4169629e-07 -1.5418966e-07 -3.990646e-07 1.743194e-08 6.733597e-09 2.87289e-06 6.55402e-08
00000000: 555c 5ab4 5888 1a33 fa4b 93b5 e0ab 11b3
00000010: c532 8435 ce10 d3b4 709b ebad a3b4 d4b0
00000020: b0d9 3134 a0a1 1233 619c 8235 56e4 7eb5
00000030: eab3 8533 a157 8b33 20cd 9836 3021 e7b4
00000040: 3c5f 4fb5 9875 46b1 9cec 9bb4 7ae1 fab1
00000050: 56f2 c4b6 7647 44b5 82b3 a5b5 9af9 f9b1
00000060: c4ae 1434 8d0e fbb5 d194 9ab6 bb9b d0b4
00000070: 0cf9 cab3 de79 dab0 7c88 20b3 97bb 0731
00000080: 1c44 9031 ad37 0c34 ff6f 3a36 625f 1233
00000090: 6e07 2cb4 5883 e4b2 68cf c735 fefd c533
000000a0: cd6a 2533 20d8 5931 ed44 04b4 8057 e3b4
000000b0: 1fb1 5bb5 e012 b2b1 67b6 a533 4217 6a34
000000c0: c8fd 5532 b9d1 cbb2 44d6 2bb7 7efc 9a38
000000d0: 1034 f2b3 87c2 2d31 b938 32b3 2d57 a634
000000e0: b4d8 8535 f6d6 0bb4 df7b 20b5 4685 5fb8
000000f0: 6292 d434 daad 5eb3 420e 4a37 1632 7eb4
00000100: 878b dc33 048f 08b2 20a9 e7b2 286c 93b2
00000110: b93f 70af 11b4 bd34 4e94 59af e31a cdb3
00000120: a665 c235 1b0e 8133 dc31 aeb3 3e29 69b2
00000130: b351 a233 aa18 20b3 6843 24b2 2896 1db1
00000140: 5f08 60b4 461e 11b3 2c73 a732 04e1 19b3
00000150: d0bd 9d37 6fee d933 30b9 10b4 f00c 25b5
00000160: 5cc4 b2b4 2619 3cb4 03f3 a3b7 5219 37b4
00000170: 6fb0 1236 62b0 10b4 4af4 8137 cbce fcb4
00000180: 083f bcb6 4f7c 67b7 3ae8 13b4 bc0a 07b5
00000190: d6a8 8832 2375 dfb1 978e 0a33 45d0 8f34
000001a0: 031f 47b3 ca59 84b5 c9e2 9eb1 ae21 22b1
000001b0: 5677 3e2f 3a1a 20b4 0680 14b0 825c 63b3
000001c0: db32 75b6 10be 9e30 de7c e5b5 2545 0a33
000001d0: 9bd5 c8b6 740a 4133 3084 45b5 8d16 5335
000001e0: cc32 6db2 f287 56b2 e401 92ba 1cfa 82b5
000001f0: c677 c331 6220 e0b2 fd5c 4bb6 b33c b5b6
00000200: 4a6d 77b4 8858 f632 a2c2 a4b5 928f ccb2
00000210: 940b 33b1 3d8a 23b4 87a8 69b5 f67b 8934
00000220: 15d5 a7ba a88f d4b2 7342 7c34 43c2 2cb4
00000230: e8b9 51b7 39eb 91b4 b454 b037 d3e1 eeb5
00000240: 81e0 20b1 86f4 2b30 7fa0 38b3 b9ab aab5
00000250: c631 bdb3 d64e e734 4ff2 9db6 e9d7 0537
00000260: ab5c 1635 e20b 1ab4 b961 8130 6e1c 55b2
00000270: 0f08 a933 d3e3 39b3 5cec 45b3 fe6a ba34
00000280: ea4d 35b8 3cf7 67b5 e3f9 c735 e04a ffb5
00000290: 2039 78b3 4cc3 0638 1fed 2fb3 7781 4eb5
000002a0: 9086 65b4 fec2 71b6 d287 4233 e033 25b2
000002b0: 240b 8834 458e dbb2 af61 5c30 b381 6db2
000002c0: 3a23 70b5 9487 5fb2 fcc3 2bb5 3d68 18b8
000002d0: 1392 10b6 a453 b4b1 cd40 3bb3 1067 1e33
000002e0: 1e0d afb6 1c3e a92e 7b8f 55b1 e8c2 15b0
000002f0: df26 ccb3 44ef dcb3 2cab 08b5 6380 6eb3
00000300: 5e20 b8b4 2fe5 08b1 2c84 c7b3 9d71 9335
00000310: bd35 95b5 5aea a9ba 791f 0a38 9e9c bcb4
00000320: 20ee 57b7 e77c 2e32 1f27 25b3 9eb0 8db3
00000330: 54fe 4ab7 fe74 aeb3 e5cb 07b5 fa1c dcb4
00000340: 706b 4ab6 7090 3734 9b43 bdb5 f64e 2431
00000350: c54c c5b3 7c8b 70b4 7575 0f34 b668 1e33
00000360: 3ca6 55b1 3b9c dbb1 68cb ffb5 ba0e 39b2
00000370: 32b5 92b4 9c9e 4fb5 4cb2 0e37 e0d3 c7b7
00000380: 5460 63b2 bd47 09b5 36a8 a932 12fd 8eb1
00000390: ef7c 3c37 98d3 4eb3 567b 9bb6 887a 7d35
000003a0: ab0d bbb0 0ddc 29b3 f9cb 46b6 ab24 c5b0
000003b0: dca3 03ba be53 82b5 3745 50b2 2c56 4ab4
000003c0: f2c1 34b8 57d3 45b9 f17a 8ab1 72a3 ccb4
000003d0: cc83 3bb5 765d 9b32 a875 3cb2 7a97 b7b6
000003e0: 6695 59b2 2e25 18b4 558f 25b4 053f d6b4
000003f0: 3ebd 9532 585d e731 e0cb 4036 1bbf 8c33

fc2.bias f4 [300]
-0.0025563824 -0.0024596837 -0.004058032 -0.006323319 -0.0142769255 -0.0012945399 -0.006500995 -0.0012525606
-0.0023324462 0.0037883758 -0.0045028245 -0.0045967223 -0.0005747004 5.056596e-06 -0.0021725204 -0.0029961583
-0.010744669 -0.005930384 -0.0038262384 -0.0018137846 -0.0020931312 -0.001544632 0.0013861891 -0.0037833368
-0.0020817544 -0.00035687175 -0.0012871077 -0.003704465 -0.0024729855 -0.0042395545 -0.005198625 -0.0026730495
-0.0042099776 -0.008368711 -0.00041381296 -0.0033528372 -0.002533769 -0.0039054595 0.0036956146 -0.0018387358
-0.0045388867 -0.0024647706 -0.0011072626 -0.003231709 -0.0056128157 -0.0014309185 -0.0032160692 -0.0016325349
-0.004525234 -0.0012042184 -0.0011627494 -0.003735754 -0.0056924555 -0.0024090772 -0.0031941172 -0.003095082
-0.008344018 -0.0023516743 -0.0034409412 -0.001090842 -0.004241956 -0.002067915 -0.0064778 -0.0016877858
-0.0073095905 -0.00083787733 -0.0014792748 0.0018425691 -0.002369961 -0.0073860716 -0.002595409 -0.0017536957
-0.0028869568 -0.0055612214 -0.0017277392 -0.00334198 -0.0025314596 -0.0016521516 -0.003145822 -0.00423403
-0.0005473417 -0.0024862457 -0.011156539 -0.00097478845 -0.0014600223 -0.0020605766 -0.002274716 -0.002852194
-0.0026743168 -0.0069148676 -0.002553415 -0.0032709073 -0.0073532555 -0.0066497773 -0.009235784 -0.0027429874
-0.005217254 -0.0010073086 -0.00515089 -0.0035063862 -0.0030926606 -0.00016776842 -0.004127323 -0.0010712367
-0.0029489682 -0.00029385116 -2.8841683e-05 -0.0024361885 -0.0017632528 -0.0059784614 -0.006621753 -0.0046153604
-0.0036814874 -0.0017940694 -0.004546147 -0.0028523027 -0.0006712223 -0.0009781542 0.80373204 -0.0032975203
-0.005777228 -0.0035802817 -0.0020274348 -0.0024085285 -0.0015255627 -0.002178258 -0.0012149609 -0.0035265852
-0.0044802683 -0.0016906724 -0.0024750486 -0.0014742329 -0.0019904266 -0.0042326907 -0.0006196711 -0.002209461
-0.0026863844 -0.0029937394 -0.01327663 -0.0015466072 -0.0024440645 -0.0027464307 -0.0018258763 -0.00030000915
-1.7840406e-05 -0.004114397 -0.00083391485 -0.0036941078 -0.006255705 -0.0041159866 -0.005542678 -0.0035531651
-0.0025059143 -0.0042152773 -0.001708918 -0.007477975 -0.0021403786 -0.0022140143 -0.0058146603 -0.0018180297
-0.000835123 -0.0018760281 -0.004101117 -0.0011673913 -0.001050083 -0.003981013 -0.004570202 -0.0037669693
-0.0020680206 -0.002246698 -0.004466699 -0.0021928884 -0.0035835837 -0.0051524173 -0.0029444234 -0.0017037711
-0.0033080291 -0.0042716297 -0.0031772684 -0.006678212 -0.0030401084 0.07481235 -0.0013013788 -0.0023823425
-0.0031541022 -0.0013006614 -0.0005041765 -0.003597413 -0.0063108564 -0.00071393605 0.0028714642 -0.002512078
-0.004434068 -0.00748036 -0.0011150757 -0.00085569953 -0.000810358 -0.0060668043 -0.0026190758 -0.003874382
-0.0028693897 -0.0032384566 -0.006872724 -0.001890412 -0.0014098361 -0.005037247 -0.0037673109 -0.0016321589
-0.007936498 -0.0018696998 -0.0019702362 -0.0014433216 -0.0044443975 -0.0020832215 -0.0052675703 -0.0035382896
-0.0011440828 -0.002531504 -0.0063917893 0.11829402 -0.0031389988 -0.007007776 -0.0006188777 -0.0011859065
-0.0029527491 -0.0066502043 -0.002784675 -0.0033525596 -0.0023473348 -0.0022352862 -0.0015093252 -0.003033872
-0.004112998 -0.0053649936 -0.0038727652 -0.0030608876 -0.003999808 -0.0019487726 -0.0058409628 -0.0007661542
4.2919288e-05 -0.003997672 -0.0008420985 -0.0025219633 0.0011463921 -0.0008899798 0.013491595 -0.00605549
-0.0072737215 -0.0003742422 -0.0036706675 -0.0042938264 -1.9475276e-05 -0.0027970308 0.000497726 -0.0042297416
00000000: fb88 27bb a532 21bb 3df9 84bb d833 cfbb
00000010: c4e9 69bc 8dad a9ba 4c06 d5bb f62c a4ba
00000020: f4db 18bb 6646 783b 6e8c 93bb 1aa0 96bb
00000030: 7ea7 16ba d4ab a936 d860 0ebb 325b 44bb
00000040: 680a 30bc ab53 c2bb a1c1 7abb 83bc edba
00000050: ea2c 09bb 4075 caba cab0 b53a dcf1 77bb
00000060: 0b6e 08bb 841a bbb9 2bb4 a8ba 9cc6 72bb
00000070: d011 22bb f6eb 8abb 3a59 aabb 542e 2fbb
00000080: daf3 89bb eb1c 09bc 09f5 d8b9 46bb 5bbb
00000090: 970d 26bb bdf2 7fbb 2032 723b bc01 f1ba
000000a0: f1ba 94bb fd87 21bb 9121 91ba 14cb 53bb
000000b0: b6eb b7bb a88d bbba b0c4 52bb c8fa d5ba
000000c0: 6a48 94bb ddd6 9dba 6567 98ba 8dd3 74bb
000000d0: c787 babb 9ce1 1dbb 6554 51bb dcd6 4abb
000000e0: 59b5 08bc 8c1e 1abb 6a81 61bb 95fa 8eba
000000f0: 1b00 8bbb db85 07bb ba43 d4bb b238 ddba
00000100: 4a85 efbb ffa4 5bba 3ae4 c1ba 5c82 f13a
00000110: 5951 1bbb dc06 f2bb bd17 2abb 43dc e5ba
00000120: 1933 3dbb e83a b6bb 4f75 e2ba 1f05 5bbb
00000130: d8e6 25bb 028d d8ba 232a 4ebb 9ebd 8abb
00000140: 7b7b 0fba 48f0 22bb ebc9 36bc f288 7fba
00000150: 385e bfba bd0a 07bb 6713 15bb e0eb 3abb
00000160: 9743 2fbb 1d96 e2bb 3257 27bb b85c 56bb
00000170: 94f3 f0bb 60e6 d9bb b051 17bc b1c3 33bb
00000180: 80f5 aabb ab07 84ba ccc8 a8bb 66cb 65bb
00000190: 3cae 4abb feea 2fb9 7f3e 87bb bd68 8cba
000001a0: 7a43 41bb 0910 9ab9 0bf1 f1b7 76a8 1fbb
000001b0: f21c e7ba f8e6 c3bb 4afb d8bb 733c 97bb
000001c0: 1c45 71bb fb26 ebba d8f7 94bb b3ed 3abb
000001d0: f7f4 2fba 6935 80ba 62c1 4d3f 361b 58bb
000001e0: e74e bdbb 29a3 6abb b6de 04bb 67d8 1dbb
000001f0: 64f5 c7ba 1bc1 0ebb 533f 9fba 481e 67bb
00000200: 37cf 92bb 8d99 ddba 6d34 22bb 0c3b c1ba
00000210: d171 02bb 62b2 8abb 6c71 22ba 9bcc 10bb
00000220: 0d0e 30bb 9d32 44bb 3986 59bc 87b7 caba
00000230: 992c 20bb 76fd 33bb 3e52 efba 8c4a 9db9
00000240: fba7 95b7 10d2 86bb 149b 5aba d818 72bb
00000250: a8fc ccbb 66df 86bb 5a9f b5bb 38dc 68bb
00000260: 443a 24bb 4f20 8abb c6fd dfba cd09 f5bb
00000270: 9845 0cbb ff18 11bb e888 bebb f44a eeba
00000280: 28ec 5aba 0fe5 f5ba aa62 86bb 2703 99ba
00000290: f0a2 89ba 2873 82bb a2c1 95bb 42df 76bb
000002a0: a187 07bb 563d 13bb 635d 92bb 90b6 0fbb
000002b0: 8fda 6abb 9cd5 a8bb 3af7 40bb 1251 dfba
000002c0: 85cb 58bb 07f9 8bbb b839 50bb e7d4 dabb
000002d0: 8e3c 47bb 3837 993d 0793 aaba 1321 1cbb
000002e0: 0eb5 4ebb f47a aaba b62a 04ba 93c2 6bbb
000002f0: 4dcb cebb 7027 3bba 2d2f 3c3b ada1 24bb
00000300: a94b 91bb cf1d f5bb bb27 92ba 0651 60ba
00000310: 346e 54ba 0bcc c6bb cda4 2bbb 58e9 7dbb
00000320: 5f0c 3cbb 493c 54bb 9634 e1bb b3c7 f7ba
00000330: 40ca b8ba 7e0f a5bb fde4 76bb 2aee d5ba
00000340: 1608 02bc b710 f5ba 141f 01bb d62d bdba
00000350: 4fa2 91bb a886 08bb 959b acbb a6e2 67bb
00000360: 0cf5 95ba 97e7 25bb 3772 d1bb 2344 f23d
00000370: a9b7 4dbb 7ca1 e5bb 2e3c 22ba 6b70 9bba
00000380: e982 41bb f5e9 d9bb 187f 36bb 9eb6 5bbb
00000390: bed5 19bb e17d 12bb 8dd4 c5ba edd3 46bb
000003a0: 54c6 86bb d4cc afbb 38ce 7dbb 2c99 48bb
000003b0: d210 83bb f56d ffba 8c65 bfbb bdd7 48ba
000003c0: 3c04 3438 e7fe 82bb 46c0 5cba 8647 25bb
000003d0: 8942 963a 894d 69ba da0b 5d3c 226d c6bb
000003e0: 6658 eebb f035 c4b9 958f 70bb 3ab3 8cbb
000003f0: d65e a3b7 644e 37bb d479 023a a599 8abb

fc3.weight f4 [1, 300]
6.5476715e-06 -0.00067312556 0.0005865376 -0.0020115825 -0.010423607 0.0019723747 -0.0005674022 0.00045805282
-0.00023452312 -0.010041728 0.0035683997 0.00026440725 0.0003276695 -7.36514e-05 0.0009680116 -0.0018013946
0.00072724913 -0.0057270154 -0.0025347038 -0.0025059495 0.00025372373 0.001649332 0.0014429298 -0.00013020386
-0.0005715628 -0.00021527408 -0.0010145445 -0.00079836673 -0.000347571 -0.0037522651 -0.0019824777 -0.0013489969
-0.0015899534 -0.0045020445 -0.0022346382 0.00010921721 -0.0021716522 -0.0015518602 -0.012375858 0.0004890195
-0.0022512397 -0.0008003059 -0.00037819264 -0.000525116 -0.0014328373 -0.0004181172 -0.0020034912 -0.0006983955
-0.0019176883 -0.0017813962 -0.00027903737 0.001337208 -0.0008629232 -0.00074163894 -0.006735644 0.0015752005
-0.0034475862 -0.0010456013 0.0018668053 0.0013529215 6.665705e-05 -0.0002563774 -0.0006619959 -0.0010292825
-0.0010606134 -0.00032538996 -0.000184992 -0.0038707657 0.0002639658 -0.003456616 -0.0021397495 0.001142801
0.0013274401 0.0012611785 -7.309372e-05 -0.0011958475 -0.0008552706 0.00043778957 0.0032141323 -0.0001654964
-0.00038694145 0.0010204228 -0.005648648 0.0012652721 0.0007203506 0.00017807029 -0.00040157785 -0.0012174887
-0.0015821499 0.0025102133 -0.00012523029 0.002408523 -0.0050140675 0.0042889365 -0.0068762777 -0.0014636591
-0.0034430248 -0.00025576615 -0.006545285 0.0023374602 3.039114e-05 0.0009629269 0.0017952038 2.673116e-05
-0.00083391776 -0.0016551607 -0.0002085358 -0.0003977537 -6.700738e-05 -0.0021116142 -0.0035569125 -0.004140674
-0.007225431 0.0016091185 -0.0074228267 0.00014085026 -0.00022129995 0.00014669297 -2.5899851 -0.0039317505
-0.0010479138 0.0007136118 0.0014919773 -0.00040235263 0.0006596296 0.0017879038 0.0014334257 -0.0047576157
-0.00107751 -0.00039299508 3.147624e-05 -0.000624343 -0.0015245123 -0.001375411 -0.00011673406 0.0006249729
-0.00054825627 -0.006534962 -0.0039531738 -0.00068308966 0.00044063808 -0.0012481201 -0.001335211 -0.0006125025
0.0017738956 -0.00053126056 -0.00055892736 -0.0008121215 -0.006186254 -0.002560401 -0.0037537506 -0.00033463546
0.00027060058 0.0010546199 -0.00061976374 0.0034619137 -0.006490491 0.00049639295 0.002343808 -0.00082992483
-0.0025249182 0.018583553 -0.006122922 -0.00060541806 3.0265679e-05 -0.001784253 -0.0032926388 -0.001186075
-0.0014075179 -6.641142e-05 -0.0024522773 -0.0023484984 -0.0013671322 0.0004256721 0.0007594156 -0.0016526778
-0.0012457699 7.769446e-05 -0.00020404825 0.0022212162 -0.0004529234 2.7658312 -6.0999166e-05 -0.00061107485
-9.402196e-05 -0.0014621004 -0.00041065912 -0.0010271042 -0.002855501 -0.0001802178 -0.014794891 0.0001805179
-0.0013839746 -0.015994444 0.00063675287 0.00045848612 -0.00030332291 0.00070399576 -0.0021580718 -0.006888199
-0.0011124826 -0.0014760369 -0.00460654 0.00060965493 -0.0062315525 -0.002727985 0.0020241567 8.438498e-05
-7.402242e-05 -0.0016239163 -0.00274666 0.0009088312 -0.0018877483 -0.00014267664 0.0021859123 -0.0018447791
-0.0017033016 -0.0014100069 -0.0035907174 -3.966047 2.3446208e-05 0.004525547 0.0010391184 -0.0004721079
0.00045097206 -0.002776817 -0.0046816445 -0.0005636388 0.00049004605 0.0012827714 -0.00021435901 -0.0009718954
-0.0012349342 -0.0005774849 -0.00037559847 -0.0022691851 0.00067178335 -0.00044091648 -0.00087363686 4.200853e-05
-0.0001201019 9.309446e-05 0.00050316774 -0.0001686845 -0.016495086 0.00033626452 -0.019217052 0.0011555331
-0.0017951952 -0.0015198878 0.00032125285 -0.0014276368 -0.00020558857 -0.0005844978 -0.0029742222 -0.0012543909
00000000: 12b4 db36 b174 30ba dfc1 193a c1d4 03bb
00000010: c7c7 2abc f542 013b b8bd 14ba cf26 f039
00000020: 52ea 75b9 0f86 24bc d0db 693b 24a0 8a39
00000030: 0ecb ab39 4b75 9ab8 29c2 7d3a c61c ecba
00000040: dda4 3e3a b0a9 bbbb 461d 26bb db3a 24bb
00000050: 3906 8539 662e d83a b120 bd3a 5587 08b9
00000060: eed4 15ba 32bb 61b9 77fa 84ba 7c49 51ba
00000070: 313a b6b9 90e8 75bb 75ec 01bb d3d0 b0ba
00000080: fc65 d0ba e385 93bb 0273 12bb 8b0b e538
00000090: 4752 0ebb ca67 cbba 1cc4 4abc 8b31 003a
000000a0: 8989 13bb 9fcb 51ba 2848 c6b9 f0a7 09ba
000000b0: 0bce bbba be36 dbb9 014d 03bb 8714 37ba
000000c0: f15a fbba bd7d e9ba c34b 92b9 4145 af3a
000000d0: cc35 62ba 8c6a 42ba adb6 dcbb f576 ce3a
000000e0: e6f0 61bb 8f0c 89ba 97af f43a 8354 b13a
000000f0: 3bca 8b38 646a 86b9 cb89 2dba fde8 86ba
00000100: 4804 8bba 1a99 aab9 69fa 41b9 acac 7dbb
00000110: e464 8a39 6588 62bb 0a3b 0cbb 0aca 953a
00000120: 80fd ad3a 214e a53a e449 99b8 fcbd 9cba
00000130: 3d34 60ba 1f87 e539 31a4 523b 1a89 2db9
00000140: 67de cab9 b5bf 853a 4b18 b9bb 7dd7 a53a
00000150: e9d5 3c3a 61b8 3a39 de8a d2b9 2494 9fba
00000160: 2460 cfba 6482 243b 4050 03b9 50d8 1d3b
00000170: 0c4d a4bb 358a 8c3b 6652 e1bb 40d8 bfba
00000180: 5fa4 61bb 5a18 86b9 d579 d6bb 1330 193b
00000190: 7af0 fe37 ee6c 7c3a 0b4d eb3a bb3c e037
000001a0: 469b 5aba faf1 d8ba 67aa 5ab9 9989 d0b9
000001b0: 5086 8cb8 0263 0abb 171b 69bb 7eae 87bb
000001c0: 4fc3 ecbb 0fe9 d23a 2f3b f3bb 34b1 1339
000001d0: c10c 68b9 98d1 1939 51c2 25c0 ead5 80bb
000001e0: 275a 89ba ad11 3b3a 738e c33a dbf2 d2b9
000001f0: feea 2c3a 1958 ea3a c9e1 bb3a c6e5 9bbb
00000200: 3c3b 8dba e80a ceb9 5b05 0438 f3aa 23ba
00000210: 25d2 c7ba 2347 b4ba 1fcf f4b8 39d5 233a
00000220: dbb8 0fba 3c23 d6bb a089 81bb 5f11 33ba
00000230: 7105 e739 f697 a3ba 3f02 afba 5990 20ba
00000240: 0f82 e83a 4b44 0bba fb84 12ba 8de4 54ba
00000250: 0fb6 cabb 67cc 27bb 7c01 76bb 0372 afb9
00000260: 65df 8d39 2c3b 8a3a a477 22ba 46e1 623b
00000270: 2fae d4bb 5e20 023a 939a 193b 508f 59ba
00000280: 1979 25bb 893c 983c cba2 c8bb ebb4 1eba
00000290: 0de3 fd37 99dd e9ba 50c9 57bb 1376 9bba
000002a0: 777c b8ba 5c46 8bb8 63b6 20bb 44e9 19bb
000002b0: 5831 b3ba be2c df39 8513 473a aa9e d8ba
000002c0: 1a49 a3ba e5ef a238 c9f5 55b9 d391 113b
000002d0: 5a76 edb9 6103 3140 5bd9 7fb8 8a30 20ba
000002e0: a82d c5b8 f3a3 bfba bc4d d7b9 e69f 86ba
000002f0: 5b23 3bbb d9f8 3cb9 4566 72bc 6849 3d39
00000300: 7b66 b5ba c806 83bc c3eb 263a f760 f039
00000310: 5007 9fb9 5b8c 383a 706e 0dbb 67b6 e1bb
00000320: b9d0 91ba 9477 c1ba 75f2 96bb 40d1 1f3a
00000330: 0d32 ccbb fec7 32bb b7a7 043b d7f7 b038
00000340: 7c3c 9bb8 97d9 d4ba 4f01 34bb a13e 6e3a
00000350: 526e f7ba 789b 15b9 8641 0f3b 84cc f1ba
00000360: 5141 dfba fbcf b8ba 3e52 6bbb b7d3 7dc0
00000370: 59ae c437 0a4b 943b 0733 883a 4085 f7b9
00000380: 7270 ec39 42fb 35bb 7b68 99bb 29c1 13ba
00000390: 6f76 003a aa22 a83a 8fc5 60b9 ccc6 7eba
000003a0: 84dd a1ba 5b62 17ba f9eb c4b9 9cb6 14bb
000003b0: 9e1a 303a cf2a e7b9 c704 65ba 5132 3038
000003c0: 37df fbb8 b53b c338 04e7 033a e7e0 30b9
000003d0: b420 87bc a94c b039 146d 9dbc 4275 973a
000003e0: c14c ebba f936 c7ba d46d a839 8b1f bbba
000003f0: 4393 57b9 fc38 19ba 2beb 42bb 606a a4ba
